sac_cr_att_per_large/weights copy 3/actor.pt (torch, 754720 bytes, 21 tensors)

block1.att.bias f4 [7]
0.47877237 0.44171998 0.42104664 -0.7952726 -0.48509333 0.08520693 -0.49618158
00000000: a721 f53e 1f29 e23e 6d93 d73e fc96 4bbf
00000010: 275e f8be f980 ae3d 830b febe

block1.att.tokeys.weight f4 [35, 7]
0.32143578 1.204089 0.22572768 0.6248047 -1.8185564 -0.047733404 0.043728158 -1.2206452
-2.507935 -0.14738494 -0.2943859 -1.0307322 0.2561786 0.08607035 -0.64215374 0.2198122
-0.34211478 0.08294851 -1.3654606 -0.39094996 -0.039379247 0.21304874 0.19831875 0.042606577
0.36914715 1.1969553 -0.050903276 -0.106726825 0.13381939 0.18708846 -0.39188132 -0.0075538717
1.8162216 -0.30459398 0.11683397 -0.64663416 -0.3689076 -0.25132048 0.16772649 -1.0449501
-0.31903136 -0.000225467 -0.22419769 -1.1072203 -0.3329515 -0.17693992 2.2641387 -0.014727668
0.31383267 -0.5490169 0.024185676 -0.1386592 0.058735117 -2.8822906 0.21710095 -0.069806896
2.3395276 -0.2488244 1.1334509 0.0012975447 -1.7036326 -0.03259738 0.06647402 0.23299831
2.87587 0.34274802 0.86281335 -1.9129838 0.017242493 -0.016038531 0.18434598 -0.039721332
0.04187534 0.14230454 1.4870626 0.017954435 0.12612385 2.3211722 1.3031088 0.4037617
0.53896874 2.1152027 -0.1890473 0.020811845 -3.1252677 0.8425881 -0.6251367 0.44813097
-1.6271766 -0.119210735 0.13797607 0.1057353 2.1239817 -0.34255096 0.7863481 1.893902
0.36125463 -0.041957453 -0.38064125 -0.18356174 0.23049934 -0.14723511 -1.0033635 0.26525873
-0.29145515 -0.15648302 0.038201287 -0.24394503 0.054333895 -0.60956275 0.04479729 0.17525159
0.44904476 -0.039161194 -0.03415518 0.029068016 -1.1478299 -0.48867628 -0.17443821 1.2916259
0.37777162 0.113943174 -0.030130353 0.7733333 -0.012718401 0.13418847 1.5197915 -2.1181872
0.22616892 -0.5262866 0.41827282 0.21221747 -0.07051378 0.15116543 0.30477417 0.34221
0.18325916 -0.82550937 0.026090007 0.13668819 0.037551627 0.06631116 -0.18904121 0.28785422
1.6781441 -0.1853083 0.046820167 -0.41013548 0.15715843 -0.23233612 0.04652102 0.23347647
0.03577836 0.08232368 0.09665289 -0.06636215 -0.050833594 -0.15389979 0.23654114 -0.23959108
-0.061121613 -0.0459405 -0.03498197 0.11024569 0.12945996 -0.4100182 0.28227645 0.17586568
0.09579005 -0.016026787 -0.06436527 -0.0626378 0.5058417 0.22620995 -0.027359372 0.240435
-0.18527131 0.0956729 0.16726778 0.5116857 0.014750504 0.073128656 0.3889934 -0.18155508
0.13841423 -0.037966646 0.033608142 -0.51020205 0.089057155 0.081008 -0.039412122 0.03404391
-0.17914122 0.5389869 -0.08948107 0.15332696 -0.15807733 0.109775074 0.06620982 -0.014427394
-1.4772749 0.110350095 -0.022108821 2.6734314 -0.26734665 0.6793651 -0.16893236 -0.9176635
-0.053367075 0.022011926 -0.30677843 0.22470468 0.03461971 0.21834682 -0.88423616 0.34746063
0.010961762 2.549932 -0.6477038 0.3562791 0.05411164 1.594242 0.12700775 0.07518236
0.706006 1.691976 0.042202607 0.59194577 1.449069 -0.13583834 -0.036755424 -0.26725045
-0.2607865 -0.46810505 0.18228087 -0.58785087 -0.21045066 0.05430976 -0.8631454 -1.8129054
-0.33351132 -0.29037338 0.65514624 0.19497372 0.07634485
00000000: 3b93 a43e 971f 9a3f 2825 673e 33f3 1f3f
00000010: 75c6 e8bf 1a84 43bd 4c1c 333d 1a3e 9cbf
00000020: 0282 20c0 14ec 16be c0b9 96be 08ef 83bf
00000030: d729 833e a745 b03d 3064 24bf 7316 613e
00000040: ab29 afbe e9e0 a93d 6ac7 aebf 982a c8be
00000050: 224c 21bd 7329 5a3e 1214 4b3e 3c84 2e3d
00000060: db00 bd3e d535 993f f47f 50bd 9893 dabd
00000070: f307 093e 1e94 3f3e aba4 c8be 7886 f7bb
00000080: f379 e83f bef3 9bbe a646 ef3d d189 25bf
00000090: 75e1 bcbe 14ad 80be 7ec0 2b3e edc0 85bf
000000a0: 1458 a3be 566b 6cb9 1494 65be 65b9 8dbf
000000b0: 9e78 aabe bd2f 35be a6e7 1040 514c 71bc
000000c0: adae a03e 5f8c 0cbf 0a21 c63c adfc 0dbe
000000d0: 3c94 703d 7377 38c0 b64f 5e3e ebf6 8ebd
000000e0: d2ba 1540 d3cb 7ebe eb14 913f 6012 aa3a
000000f0: a210 dabf d584 05bd 8823 883d 1c97 6e3e
00000100: 410e 3840 ab7c af3e 56e1 5c3f a7dc f4bf
00000110: 2140 8d3c 3d63 83bc 31c5 3c3e d6b2 22bd
00000120: 7a85 2b3d 48b8 113e 1158 be3f 2e15 933c
00000130: 9c26 013e 168e 1440 45cc a63f dbb9 ce3e
00000140: dbf9 093f 7b5f 0740 9e95 41be 9a7d aa3c
00000150: 6304 48c0 dbb3 573f f508 20bf 6c71 e53e
00000160: 5347 d0bf c224 f4bd 9949 0d3e c08b d83d
00000170: 51ef 0740 d762 afbe 1c4e 493f 616b f23f
00000180: 5ef6 b83e 94db 2bbd 69e3 c2be 9cf7 3bbe
00000190: 0508 6c3e cdc4 16be 376e 80bf fecf 873e
000001a0: 9c39 95be 163d 20be f478 1c3d bacc 79be
000001b0: 388d 5e3d 4e0c 1cbf 5d7d 373d 2775 333e
000001c0: 32e9 e53e 7d67 20bd 4de6 0bbd 0c20 ee3c
000001d0: 17ec 92bf c733 fabe ee9f 32be ff53 a53f
000001e0: 486b c13e 0a5b e93d eed3 f6bc 2cf9 453f
000001f0: d760 50bc b468 093e 8788 c23f 6190 07c0
00000200: d398 673e b8ba 06bf db27 d63e 894f 593e
00000210: 8769 90bd 1ccb 1a3e 5c0b 9c3e 2636 af3e
00000220: 4aa8 3b3e 9554 53bf b6ba d53c fdf7 0b3e
00000230: bccf 193d 25ce 873d 0594 41be a161 933e
00000240: 6dcd d63f 76c1 3dbe 81c6 3f3d 47fd d1be
00000250: 24ee 203e 85e9 6dbe d38c 3e3d 7514 6f3e
00000260: 548c 123d 5199 a83d f3f1 c53d e1e8 87bd
00000270: e336 50bd e897 1dbe d737 723e 5d57 75be
00000280: a85a 7abd 1b2c 3cbd 4149 0fbd 7ec8 e13d
00000290: 2791 043e e8ed d1be 8a86 903e 2216 343e
000002a0: 932d c43d 9c4a 83bc f0d1 83bd 3f48 80bd
000002b0: d77e 013f 95a3 673e c320 e0bc 9834 763e
000002c0: c3b7 3dbe 27f0 c33d 3f48 2b3e d6fd 023f
000002d0: 19ac 713c 7ac4 953d 252a c73e 93e9 39be
000002e0: 76bc 0d3e ea82 1bbd b1a8 093d 9a9c 02bf
000002f0: 9963 b63d 86e7 a53d 9b6e 21bd a171 0b3d
00000300: cc70 37be 0cfb 093f da41 b7bd be01 1d3e
00000310: 06df 21be c1d1 e03d 0499 873d e060 6cbc
00000320: 5817 bdbf 3bff e13d 8f1d b5bc 8019 2b40
00000330: a9e1 88be dfea 2d3f 9bfc 2cbe ffeb 6abf
00000340: 6f97 5abd 5b52 b43c 1012 9dbe fc18 663e
00000350: 66cd 0d3d 4f96 5f3e 4d5d 62bf 5ce6 b13e
00000360: f698 333c 1632 2340 ebcf 25bf 376a b63e
00000370: 2ba4 5d3d 1f10 cc3f 520e 023e 36f9 993d
00000380: cfbc 343f ab92 d83f a4dc 2c3d c289 173f
00000390: 187b b93f 3519 0bbe db8c 16bd 0dd5 88be
000003a0: cf85 85be 77ab efbe d6a7 3a3e 657d 16bf
000003b0: 6180 57be e973 5e3d 19f7 5cbf 490d e8bf
000003c0: ffc1 aabe d2ab 94be aab7 273f 31a7 473e
000003d0: b05a 9c3d

block1.att.toqueries.weight f4 [35, 3]
-0.20686223 0.04971639 -0.016521936 -0.110283494 -0.19277196 -0.016423035 -0.35028666 -0.00035877342
-0.43379456 -0.25971624 0.49628493 -0.18809891 -0.44347018 0.23274764 -0.057146598 0.31636593
-0.7457347 0.1699481 0.015488449 -0.42091852 0.31448972 0.2763033 0.111144595 -0.87772167
0.29109213 -0.1001903 0.03794127 0.12573534 0.20297398 -0.15253451 -0.7970495 0.24785653
-0.2817721 0.029838335 -0.020879198 0.35804713 0.33492044 0.06253055 -0.33288726 -0.59673667
-0.23671925 0.11027946 0.090426095 0.2557335 0.09239133 -0.18040891 -0.27855822 -0.20286907
-0.46659797 -0.30085886 -0.107938096 0.19451754 0.1375952 -0.25477073 0.45474678 -0.17242533
-0.023575636 0.053155184 0.10829616 0.009731934 0.19059336 -0.03966255 0.32837164 -0.050153714
0.013536269 -0.09024664 -0.2605716 -0.7903336 0.08927915 -0.19409116 0.040715862 0.025336422
0.9047816 -0.08604869 0.24464233 0.5742718 0.057051774 -0.009429875 0.061915003 0.0685985
-0.036149073 -0.11206716 0.24315643 -0.13491121 1.1230782 -0.09095435 0.024646739 -0.08372548
-0.055279825 -0.013520399 0.3325131 0.49518847 -0.0075113615 0.0930905 0.025690677 0.055506453
0.27830625 0.12854335 0.22379181 0.10045108 -0.114027366 -0.20612296 -0.14729977 -0.27003747
-0.13290265
00000000: b1d3 53be 6aa3 4b3d 0359 87bc 50dc e1bd
00000010: 0366 45be 9a89 86bc c658 b3be c119 bcb9
00000020: 521a debe 87f9 84be 0f19 fe3e 009d 40be
00000030: 860e e3be 6655 6e3e 8d12 6abd b7fa a13e
00000040: 78e8 3ebf e006 2e3e 43c3 7d3c a282 d7be
00000050: cc04 a13e a077 8d3e c79f e33d 5eb2 60bf
00000060: 070a 953e 9230 cdbd 4e68 1b3d c4c0 003e
00000070: 69d8 4f3e 0232 1cbe 700b 4cbf 1ace 7d3e
00000080: 6f44 90be 866f f43c da0a abbc f451 b73e
00000090: b17a ab3e 0410 803d 3370 aabe bcc3 18bf
000000a0: 8866 72be 33da e13d 5131 b93d 80ef 823e
000000b0: aa37 bd3d 1dbd 38be 2f9f 8ebe e9bc 4fbe
000000c0: eee5 eebe 2c0a 9abe a60e ddbd 9b2f 473e
000000d0: c2e5 0c3e 4f71 82be 92d4 e83e 4490 30be
000000e0: b121 c1bc 40b9 593d 61ca dd3d b172 1f3c
000000f0: e82a 433e 3375 22bd 5420 a83e fb6d 4dbd
00000100: 3ac7 5d3c 3bd3 b8bd a469 85be 4e53 4abf
00000110: fdd7 b63d d5bf 46be adc5 263d 548e cf3c
00000120: c49f 673f 4c3a b0bd 8583 7a3e 7a03 133f
00000130: 1faf 693d c37f 1abc 969a 7d3d 5f7d 8c3d
00000140: 0d11 14bd 7883 e5bd 00fe 783e 2a26 0abe
00000150: 07c1 8f3f 4646 babd f5e7 c93c 4478 abbd
00000160: 196d 62bd aa84 5dbc 283f aa3e 5889 fd3e
00000170: de21 f6bb 3ba6 be3d 4175 d23c bc5a 633d
00000180: 287e 8e3e dea0 033e ae29 653e 4cb9 cd3d
00000190: 2e87 e9bd e611 53be c0d5 16be 5a42 8abe
000001a0: a217 08be

block1.att.tovalues.weight f4 [35, 7]
0.72265714 0.05896268 0.11856097 -0.07096181 0.022836933 6.368318e-05 -0.014242774 -0.26533192
0.5754947 -0.22841355 -0.25894186 0.11195148 -0.24987844 0.02684772 0.42561355 0.30482095
-0.17757827 0.22498897 0.06647596 -0.24918072 -0.007336276 -0.108622134 0.86831075 -0.04350718
0.29078013 -0.1518733 0.039613567 -0.0203419 0.19552901 0.33823642 0.17154069 -0.03694658
0.13716212 -0.07620863 0.09798753 -0.19828399 -0.11914181 -0.24009764 -0.045970097 0.071443655
-0.2989689 -0.15984522 -0.31666553 -0.3395495 -0.17553467 0.10646114 0.24869445 -0.11002502
0.037242446 0.54157597 0.8940355 -0.32783577 0.07308426 0.16927977 -0.25372285 -0.07147494
-0.25655016 -0.9517506 0.05585234 0.17943244 0.35091126 -0.096239045 0.012909591 -0.33623296
1.0562344 -0.039118987 0.33025587 -0.013009531 -0.06781246 0.11610424 0.31535742 -1.0825192
-0.30030036 -0.21249634 -0.42746228 -0.1542307 -0.014689436 0.9476449 -0.33912554 0.40664405
0.16669075 0.27139103 0.13715224 0.09916303 0.22780527 -0.28365108 0.104304016 -0.27226087
-0.34908542 -0.10076083 -0.0009259546 0.11872709 0.46677667 0.10283506 0.4255596 -0.529578
0.027579326 -0.026033333 -0.10779245 0.16210616 -0.274849 0.23491058 -0.37736028 0.01976069
-0.05972276 0.2201079 -0.4028257 0.17737792 -0.021871954 -0.21304278 0.05608845 -0.12937063
0.31738767 -0.3059337 -0.08125453 -0.037295163 -0.12638576 -0.11236425 -0.044157583 -0.4152759
0.45614275 0.02235074 0.12989475 0.2421229 -0.055917904 -0.14838502 -0.16042475 0.0767192
0.059526425 0.075723656 0.024681233 -0.028891178 0.03748638 -0.23553403 -0.45332664 -0.019393098
0.028405327 0.08783188 -0.023899421 -0.03682551 0.012519637 0.030591974 -0.21264464 -0.29160148
0.024301428 -0.2307234 -0.07440301 -0.023749486 0.16646609 0.25618148 0.12536712 0.20319492
0.16450028 0.049797706 0.18410978 -0.17353728 0.22420762 -0.068513446 0.13952619 0.23127197
0.3353739 -0.2877509 -0.03845979 -0.04272767 -0.16038638 -0.16373336 0.21725163 -0.06945863
0.10929668 -0.12813486 -0.050757993 0.15118468 0.21076202 0.05540384 -0.33175552 0.12953483
-0.063763134 0.07857395 -0.09798478 0.8015015 -0.16125834 0.05930511 0.19203918 0.12065608
0.21709602 -0.2633167 -0.12138176 0.29835173 -0.01316765 -0.15117598 -0.20241687 0.13989684
-0.0005777243 -0.37878582 -0.050164215 -0.14462012 0.44194162 0.0126096755 0.12780923 0.2931235
0.07078167 0.07019806 0.1361982 -0.026064765 -0.12032721 0.012716937 -0.3072366 -0.42438072
-0.11242668 0.12698828 -0.61225724 -0.18471631 -0.19348294 0.04498081 -0.50109726 -0.17118378
0.018570602 -0.37135842 0.25114688 0.1806629 -0.042659882 -0.22698478 0.22116148 0.0066915136
0.14948194 0.4956896 -0.08498096 0.038803343 -0.37797523 0.08527556 0.06925806 0.10364271
-0.3663876 -0.10126219 0.023459421 -0.6729421 0.31133506 -0.12097632 -0.7175315 0.12093369
-0.18548192 0.13291578 0.19487607 -0.13926409 0.06922036
00000000: 0f00 393f da82 713d 18d0 f23d 6d54 91bd
00000010: 8514 bb3c a68d 8538 865a 69bc 96d9 87be
00000020: 9f53 133f 3ee5 69be 0794 84be d146 e53d
00000030: 22e0 7fbe c0ef db3c 05ea d93e 7e11 9c3e
00000040: 14d7 35be 8263 663e 8c24 883d 3b29 7fbe
00000050: 2565 f0bb 4875 debd 9d49 5e3f 9634 32bd
00000060: 22e1 943e ad84 1bbe d641 223d 0ea4 a6bc
00000070: c238 483e 532d ad3e 5da8 2f3e 4c55 17bd
00000080: 3a74 0c3e 4513 9cbd b0ad c83d f50a 4bbe
00000090: 9f00 f4bd 28dc 75be 244b 3cbd 0d51 923d
000000a0: 7412 99be 77ae 23be fc21 a2be 6fd9 adbe
000000b0: 5cbf 33be 4c08 da3d c2a9 7e3e cc54 e1bd
000000c0: 898b 183d b9a4 0a3f 83df 643f 17da a7be
000000d0: 33ad 953d ad57 2d3e f6e7 81be 7461 92bd
000000e0: 8b5a 83be eda5 73bf 6cc5 643d 23bd 373e
000000f0: a4aa b33e fa18 c5bd c082 533c ba26 acbe
00000100: b032 873f 3b3b 20bd 4c17 a93e ee25 55bc
00000110: 42e1 8abd 0fc8 ed3d 8776 a13e fd8f 8abf
00000120: f8c0 99be a498 59be 56dc dabe a7ee 1dbe
00000130: f6ab 70bc db98 723f dda1 adbe a633 d03e
00000140: fbb0 2a3e c4f3 8a3e a371 0c3e fd15 cb3d
00000150: c945 693e b73a 91be 589d d53d c765 8bbe
00000160: 53bb b2be b25b cebd c3bb 72ba 3027 f33d
00000170: 5afd ee3e 309b d23d f3e2 d93e 6c92 07bf
00000180: 0aee e13c db43 d5bc 4ac2 dcbd 28ff 253e
00000190: 02b9 8cbe 668c 703e 5e35 c1be 2ce1 a13c
000001a0: da9f 74bd f763 613e 2c3f cebe 8fa2 353e
000001b0: d02c b3bc e327 5abe 01bd 653d bc79 04be
000001c0: a380 a23e 58a3 9cbe c668 a6bd d0c2 18bd
000001d0: 456b 01be 3a1f e6bd 95de 34bd 0b9f d4be
000001e0: 8b8b e93e e618 b73c 2103 053e 11ef 773e
000001f0: 2c0a 65bd 3ef2 17be 6346 24be f51e 9d3d
00000200: fbd1 733d 0115 9b3d 4c30 ca3c 31ad ecbc
00000210: 528b 193d d52f 71be 6e1a e8be 46de 9ebc
00000220: 4ab2 e83c 33e1 b33d b8c8 c3bc 59d6 16bd
00000230: 2a1f 4d3c 059c fa3c 84bf 59be ca4c 95be
00000240: ca13 c73c c142 6cbe 9b60 98bd 488e c2bc
00000250: 1676 2a3e 382a 833e 3d60 003e 5412 503e
00000260: c372 283e aef8 4b3d 4687 3c3e c2b3 31be
00000270: af96 653e c750 8cbd f4df 0e3e 8fd2 6c3e
00000280: 21b6 ab3e 1654 93be 0388 1dbd 3603 2fbd
00000290: 543c 24be b8a9 27be 3677 5e3e 5440 8ebd
000002a0: f0d6 df3d c935 03be 9de7 4fbd 28d0 1a3e
000002b0: 00d2 573e 23ef 623d dcdb a9be c7a4 043e
000002c0: 3f96 82bd 61eb a03d 3fac c8bd 342f 4d3f
000002d0: e820 25be eae9 723d eba5 443e 891a f73d
000002e0: 6b4e 5e3e 72d1 86be 0097 f8bd 8fc1 983e
000002f0: 21bd 57bc e0cd 1abe 5e46 4fbe 1e41 0f3e
00000300: 6c72 17ba 37f0 c1be fe78 4dbd 4c17 14be
00000310: 2c46 e23e d098 4e3c 6ce0 023e 4914 963e
00000320: fbf5 903d 00c4 8f3d 8a77 0b3e c685 d5bc
00000330: 1d6e f6bd b35a 503c 1e4e 9dbe 6e48 d9be
00000340: f63f e6bd 3709 023e e4bc 1cbf 4626 3dbe
00000350: 6420 46be cc3d 383d e947 00bf cd4a 2fbe
00000360: 6021 983c b122 bebe 5396 803e b2ff 383e
00000370: 21bc 2ebd b36e 68be 2878 623e 7c44 db3b
00000380: cb11 193e 07cb fd3e 7f0a aebd 41f0 1e3d
00000390: f885 c1be f4a4 ae3d 2bd7 8d3d a142 d43d
000003a0: 2897 bbbe 8d62 cfbd f92d c03c ef45 2cbf
000003b0: 4f67 9f3e 6fc2 f7bd 25b0 37bf 15ac f73d
000003c0: f9ee 3dbe 131b 083e 988d 473e 3f9b 0ebe
000003d0: 67c3 8d3d

block1.att.score_proj.weight f4 [1, 7]
-1.8356228 -2.7855546 -2.3026252 1.7193323 2.0186787 -2.0684557 2.1258466
00000000: b0f5 eabf 8746 32c0 365e 13c0 1513 dc3f
00000010: 0832 0140 9461 04c0 df0d 0840

layers.0.weight f4 [512, 38]
0.75817096 -0.018312579 0.3690272 0.22274344 0.41104585 0.0037799387 -0.22832868 0.1446625
-0.2343082 -0.1121959 -0.48512068 0.021765491 0.21654321 0.15232278 0.06362109 0.037931904
-0.020573772 0.22591287 -0.40020046 -0.060669843 0.04961503 0.11489926 -0.27937254 -0.24123324
0.5482939 -0.10061938 0.018387197 -0.13550355 0.07286328 -0.1712992 -0.02619229 -0.16946153
-0.04572759 -0.18601301 -0.2008571 -0.024960993 0.12731953 0.034147367 -0.11153296 0.030971233
-0.027650286 -0.044254605 -0.1180992 -0.00078198157 0.10124522 0.60804254 -0.56520265 0.41541612
-0.6569913 -0.24795459 0.3095422 0.36260167 -0.2939477 -0.08519774 -0.091720834 0.289658
-0.20613095 -0.15186852 0.35530257 -0.10362463 -0.04995529 0.123186626 0.1619463 0.30333933
0.05287191 0.27085724 0.6217418 -0.02827921 -0.1471957 -0.23379667 -0.18047452 0.05036438
-0.08438781 0.24340111 0.115603134 0.27416041 -0.1892463 -0.20398721 0.20570485 0.09283253
0.051111285 -0.21804026 0.0011909165 0.047569934 -0.37533525 -0.13265939 -0.096678264 -0.19137
0.17225535 -0.49874577 -0.3543291 0.13221277 0.13882133 -0.3218213 0.13118383 0.1258312
-0.16809416 0.30761817 -0.03336017 -0.059460804 0.41170973 -0.51501495 -0.15705912 -0.16160177
0.11236518 -0.21250719 0.43922165 -0.045150556 -0.32969743 0.024024313 0.51971245 -0.053125393
0.006272807 -0.0014529338 0.102381304 0.049775753 0.014001401 0.17750433 0.13534102 -0.3492493
0.29772562 0.205944 -0.37467638 -0.0280299 0.0773206 0.2669177 0.07062444 0.18158542
0.004191677 0.02578504 -0.19871496 0.41533196 -0.057499267 -0.17601499 0.15219672 0.11281853
0.13529877 -0.45227677 0.17527103 -0.17688058 0.55041295 -0.3397767 0.074304104 0.17194414
-0.29811805 -0.48500538 -0.6721299 0.11644556 0.045905355 -0.010918266 0.059728965 0.042625733
0.13123763 0.14442863 0.048813283 0.3250577 0.02093546 -0.26787442 0.12226266 -0.44005507
0.6650831 -0.32575834 0.5412666 -0.12994981 -0.07778103 -0.1469465 -0.09648455 -0.20069468
0.08052381 0.12152508 0.11332642 0.3606686 -0.20119564 -0.150132 0.06989061 0.011770014
-0.052174307 0.14039168 -0.003579744 0.058254488 0.031506535 -0.15565859 -0.06199144 -0.5868872
-0.45603916 -0.21195097 -0.08964506 0.16698599 0.08913997 0.24910623 -0.0029645308 0.044287216
-0.13962357 0.14756581 0.29641527 0.19125603 0.26471108 -0.20312999 0.01099728 0.101363525
0.12625906 -0.104988754 0.21689852 0.43471304 0.02348304 -0.013650068 -0.19999093 -0.30916286
0.28330916 -0.23244719 -0.09215606 0.03363046 -0.2264891 0.1652433 -0.13807121 -0.32147914
0.12047598 0.09607404 -0.036444265 -0.036948044 0.1283204 -0.09882814 0.030116666 0.18648909
-0.36694762 0.46304426 0.8880377 0.0081676 0.03209255 -0.01663074 0.115609005 0.12712409
-0.051597673 -0.14503086 -0.13604291 0.048566695 0.19704027 -0.07016886 0.22483213 -0.026020186
-0.6721243 -0.14468867 -0.21308368 -0.050788075 0.0035361832 -0.14977483 -0.3441099 0.24905209
-0.08034848 -0.15638252 -0.10711877 0.1520739 0.30838028 -0.37475288 -0.070569724 -0.015602073
00000000: 7e17 423f 4304 96bc 22f1 bc3e db16 643e
00000010: 9a74 d23e d9b8 773b fece 69be 6822 143e
00000020: 7dee 6fbe f7c6 e5bd bd61 f8be 8b4d b23c
00000030: 81bd 5d3e 81fa 1b3e c64b 823d 7c5e 1b3d
00000040: 548a a8bc b455 673e 13e7 ccbe f180 78bd
00000050: 2139 4b3d 4e50 eb3d eb09 8fbe d905 77be
00000060: fd5c 0c3f 8911 cebd bfa0 963c 71c1 0abe
00000070: 5839 953d 0f69 2fbe 3791 d6bc 5387 2dbe
00000080: da4c 3bbd 327a 3ebe 7cad 4dbe ff7a ccbc
00000090: 0d60 023e 1cde 0b3d 646b e4bd 62b7 fd3c
000000a0: da82 e2bc 5144 35bd fedd f1bd e5fd 4cba
000000b0: a759 cf3d ada8 1b3f 1fb1 10bf 6cb1 d43e
000000c0: 9530 28bf cfe7 7dbe 517c 9e3e eda6 b93e
000000d0: 5080 96be 277c aebd 22d8 bbbd 0e4e 943e
000000e0: fe13 53be 6c83 1bbe 38ea b53e 2639 d4bd
000000f0: eb9d 4cbd 4549 fc3d 40d5 253e 4b4f 9b3e
00000100: 3790 583d cdad 8a3e 782a 1f3f cda9 e7bc
00000110: 78ba 16be 6568 6fbe 50ce 38be e14a 4e3d
00000120: 84d3 acbd 243e 793e 56c1 ec3d c15e 8c3e
00000130: c8c9 41be 06e2 50be 4ba4 523e fb1e be3d
00000140: 115a 513d f245 5fbe 8718 9c3a b1d8 423d
00000150: f12b c0be ddd7 07be 41ff c5bd 7ff6 43be
00000160: b563 303e 9b5b ffbe a06a b5be c962 073e
00000170: 2e27 0e3e c3c5 a4be 0e55 063e e5d9 003e
00000180: e020 2cbe 2180 9d3e aca4 08bd 2c8d 73bd
00000190: 9ecb d23e 05d8 03bf 1bd4 20be ef7a 25be
000001a0: b71f e63d 7c9b 59be a9e1 e03e caef 38bd
000001b0: 1ace a8be a3ce c43c e00b 053f 039a 59bd
000001c0: 1e8c cd3b 5e70 beba 4aad d13d a9e1 4b3d
000001d0: 2266 653c b2c3 353e d696 0a3e ced0 b2be
000001e0: 7e6f 983e fce2 523e 95d5 bfbe f69e e5bc
000001f0: 435a 9e3d 70a9 883e 8ca3 903d 87f1 393e
00000200: 565a 893b 263b d33c ef7b 4bbe 64a6 d43e
00000210: 5a84 6bbd 463d 34be 75d9 1b3e 670d e73d
00000220: c38b 0a3e d290 e7be 407a 333e 2f20 35be
00000230: dde7 0c3f 36f7 adbe c02c 983d 2012 303e
00000240: eea2 98be a052 f8be b510 2cbf 027b ee3d
00000250: 4107 3c3d 87e2 32bc 5ca6 743d 5298 2e3d
00000260: 2863 063e 19e5 133e 70f0 473d f66d a63e
00000270: d880 ab3c d626 89be d864 fa3d e64e e1be
00000280: e342 2a3f ccc9 a6be 7390 0a3f 9011 05be
00000290: a94b 9fbd 2579 16be b199 c5bd e882 4dbe
000002a0: abe9 a43d 24e2 f83d af17 e83d 8ea9 b83e
000002b0: 3b06 4ebe 34bc 19be cf22 8f3d 04d7 403c
000002c0: bab4 55bd d6c2 0f3e 239a 6abb 429c 6e3d
000002d0: ff0c 013d f764 1fbe bcea 7dbd 3d3e 16bf
000002e0: f77d e9be ad09 59be d497 b7bd 60fe 2a3e
000002f0: 048f b63d b415 7f3e 9348 42bb 8366 353d
00000300: 7bf9 0ebe 7e1b 173e bec3 973e 9fd8 433e
00000310: 3688 873e 4f01 50be ef2d 343c ae97 cf3d
00000320: 0e4a 013e 5804 d7bd a51a 5e3e b592 de3e
00000330: 815f c03c 89a4 5fbc 6cca 4cbe 984a 9ebe
00000340: e60d 913e a306 6ebe 51bc bcbd 18c0 093d
00000350: c2ec 67be 8a35 293e 8a62 0dbe ea98 a4be
00000360: 1cbc f63d 77c2 c43d 9546 15bd d556 17bd
00000370: 6c66 033e 6866 cabd 3ab7 f63c fff6 3e3e
00000380: 8fe0 bbbe 2314 ed3e 7056 633f 66d1 053c
00000390: 7a73 033d 313d 88bc 6ac4 ec3d d12c 023e
000003a0: 1558 53bd f882 14be d54e 0bbe dfed 463d
000003b0: edc4 493e b1b4 8fbd 653a 663e 4928 d5bc
000003c0: 5710 2cbf 4429 14be 9c32 5abe 2807 50bd
000003d0: 4fbf 673b 935e 19be 2c2f b0be 8307 7f3e
000003e0: be8d a4bd bd22 20be 1661 dbbd 43b9 1b3e
000003f0: 05e4 9d3e 9cdf bfbe dc86 90bd d69f 7fbc

layers.0.bias f4 [512]
0.19928382 0.008138514 0.26763678 0.20051412 -0.14261629 0.17344195 -0.09810968 0.27071774
0.20444693 0.2472659 0.17166089 0.34528193 0.060775157 -0.11256687 0.126799 0.24081497
0.009497925 0.32079095 0.07236568 0.17397632 0.1446903 0.04701251 -0.1899178 0.034319203
-0.17081305 0.24421221 0.023959603 0.05962318 0.12151315 0.10266101 -0.064931326 -0.17453857
0.4224801 -0.03712256 0.04601494 0.104014255 0.28146824 0.24251312 0.24405445 0.280967
0.0033915387 0.2449127 0.3206895 0.21221286 -0.06912228 0.11733287 -0.09643459 0.046050172
0.09285589 -0.18083733 0.16872986 0.17768385 0.26147118 0.436205 -0.01811855 0.34038475
-0.07966328 -0.13296065 0.35531425 -0.19542302 -0.45670852 -0.2722448 0.053827047 0.26049468
0.023769911 -0.1711818 -0.35573143 0.14822623 0.220037 -0.3199413 0.30098033 -0.1023046
-0.02956262 0.15622173 0.03119447 -0.26430616 0.35304943 0.08543315 0.2694756 0.4331073
0.07392141 0.050627496 -0.0068100737 0.13843246 0.24593607 -0.0010745457 0.19248147 -0.08624957
-0.23657107 0.2674193 -0.17878498 0.30134 0.095092006 0.09845594 0.19545197 -0.062184326
0.20393996 0.24183422 0.33073086 -0.25452355 0.07576699 0.076939195 0.2042664 -0.51952857
-0.33983418 0.0046219653 0.20077714 0.056004386 -0.3072089 0.15296035 0.16183661 -0.21656807
-0.1133822 -0.09540492 -0.017577317 -0.08318353 0.36333767 -0.019204564 -0.0653206 0.35404146
-0.011264312 0.19926265 -0.14747061 -0.31613228 0.006375675 0.050515305 0.40742034 0.11918314
0.05753288 -0.07976189 -0.14654033 0.1741966 -0.12352957 0.17018834 0.25281993 0.09255764
0.18737754 -0.18019323 0.18710345 0.14582798 0.093907975 -0.17193751 0.15982097 0.23772936
0.26754934 0.20547198 -0.129556 0.09369983 0.22418663 0.19379191 0.102410525 0.27904156
-0.112038985 0.007605317 -0.042213354 -0.12652797 0.12301782 0.13462855 0.04503829 -0.43700528
-0.110318266 0.3294475 0.06899567 -0.18142644 0.16891289 0.029637177 -0.49933186 0.07692443
-0.05155685 0.297281 -0.15402389 -0.27636623 0.14995244 -0.3614253 0.06447626 0.14373463
0.248218 0.374107 -0.20105742 0.12327557 0.095999494 0.33935764 0.380186 -0.23330842
-0.19246796 -0.091900654 0.16276538 0.27507985 0.07808363 -0.4363673 -0.24987336 -0.18421386
-0.107631385 0.093866244 -0.10275425 0.07970078 -0.090182506 0.08940872 0.016811261 -0.1584171
0.02332021 0.20752351 0.18876155 -0.44845796 0.021663055 0.33123115 -0.3921011 0.33729306
0.16939192 -0.14133099 0.114012465 0.30548966 -0.012053667 0.04032375 0.09553273 -0.1663367
-0.057268646 0.20820749 -0.08011251 -0.10349777 -0.25114027 -0.43304732 -0.011932275 0.070203945
0.24266885 0.06771125 0.031239102 0.039428692 -0.13762672 0.07992449 -0.04136537 0.08550558
0.08016914 -0.038938254 0.09036264 -0.20829082 -0.051164903 -0.120416254 0.36749646 0.20015043
0.29994723 0.14430472 -0.32708943 0.025393717 -0.028312963 0.01982964 0.16302189 -0.026950443
0.22599262 0.07246887 0.039784316 0.096674904 -0.19469498 0.0543003 0.28131783 -0.16639851
00000000: 0f11 4c3e 6757 053c b007 893e 9353 4d3e
00000010: 010a 12be c49a 313e baed c8bd 849b 8a3e
00000020: 895a 513e 4633 7d3e dfc7 2f3e cbc8 b03e
00000030: 5fef 783d 7689 e6bd 99d7 013e 3398 763e
00000040: 2f9d 1b3c b63e a43e 7534 943d d926 323e
00000050: b229 143e 3190 403d d079 42be 4b92 0c3d
00000060: 9ee9 2ebe c412 7a3e ee46 c43c 7037 743d
00000070: e3db f83d f03f d23d b7fa 84bd 3dba 32be
00000080: 504f d83e d30d 18bd 297a 3c3d 6d05 d53d
00000090: 9b1c 903e 5c55 783e 69e9 793e e8da 8f3e
000000a0: 9444 5e3b 65ca 7a3e 6a31 a43e 544e 593e
000000b0: fb8f 8dbd 374c f03d 807f c5bd 1b9f 3c3d
000000c0: 3b2b be3d 6c2d 39be 85c7 2c3e c1f2 353e
000000d0: 8ddf 853e 4356 df3e 5a6d 94bc e946 ae3e
000000e0: 8026 a3bd d626 08be c0eb b53e f91c 48be
000000f0: b3d5 e9be ac63 8bbe c079 5c3d 8f5f 853e
00000100: 1eb9 c23c 484a 2fbe 6e22 b6be 9ec8 173e
00000110: 6151 613e 59cf a3be 181a 9a3e 1385 d1bd
00000120: 4f2d f2bc 97f8 1f3e 8c8b ff3c 2353 87be
00000130: e5c2 b43e 93f7 ae3d b5f8 893e 3dc0 dd3e
00000140: 1c64 973d c75e 4f3d 0a27 dfbb 3dc1 0d3e
00000150: aad6 7b3e c5d7 8cba dd19 453e 9da3 b0bd
00000160: b03f 72be 2feb 883e 6913 37be 3d49 9a3e
00000170: 99bf c23d 45a3 c93d 9024 483e feb4 7ebd
00000180: a3d5 503e 64a3 773e 8e55 a93e e950 82be
00000190: b92b 9b3d 4c92 9d3d 362b 513e d3ff 04bf
000001a0: bffe adbe db73 973b 8698 4d3e db64 653d
000001b0: 7c4a 9dbe a3a1 1c3e 7fb8 253e 05c4 5dbe
000001c0: ed34 e8bd a863 c3bd 4efe 8fbc 205c aabd
000001d0: 6507 ba3e e452 9dbc cfc6 85bd ec44 b53e
000001e0: f38d 38bc 820b 4c3e 8902 17be 17dc a1be
000001f0: 0aeb d03b 23e9 4e3d 6699 d03e 4a16 f43d
00000200: 99a7 6b3d 345a a3bd ab0e 16be 9860 323e
00000210: 12fd fcbd da45 2e3e 9d71 813e dc8e bd3d
00000220: e6df 3f3e 9384 38be 0c98 3f3e ee53 153e
00000230: d352 c03d 6310 30be 1ca8 233e 536f 733e
00000240: 3afc 883e 3f67 523e 54aa 04be b2e5 bf3d
00000250: 2e91 653e 6371 463e 9cbc d13d 89de 8e3e
00000260: b274 e5bd 0636 f93b e9e7 2cbd 8c90 01be
00000270: c4f0 fb3d 11dc 093e 127a 383d 28bf dfbe
00000280: 8bee e1bd 58ad a83e 9a4d 8d3d dac7 39be
00000290: 80f7 2c3e aac9 f23c 6da8 ffbe 8e8a 9d3d
000002a0: 472d 53bd 3735 983e 70b8 1dbe e07f 8dbe
000002b0: 228d 193e bd0c b9be 210c 843d 2c2f 133e
000002c0: dc2c 7e3e f48a bf3e ffe1 4dbe e777 fc3d
000002d0: 629b c43d 49c0 ad3e bda7 c23e 67e8 6ebe
000002e0: 5216 45be 6936 bcbd f8ab 263e 44d7 8c3e
000002f0: 4fea 9f3d 896b dfbe cdde 7fbe 8fa2 3cbe
00000300: d86d dcbd f23c c03d d270 d2bd 2a3a a33d
00000310: 9bb1 b8bd eb1b b73d c5b7 893c 1838 22be
00000320: 060a bf3c 0b81 543e b54a 413e 489c e5be
00000330: b876 b13c 2197 a93e 7ac1 c8be adb1 ac3e
00000340: 1375 2d3e 12b9 10be 5e7f e93d 2469 9c3e
00000350: be7c 45bc 842a 253d aaa6 c33d 2b54 2abe
00000360: 8792 6abd 5834 553e 0712 a4bd a4f6 d3bd
00000370: 7595 80be 61b8 ddbe 977f 43bc 16c7 8f3d
00000380: 2f7e 783e 32ac 8a3d 25e9 ff3c fb7f 213d
00000390: 05ee 0cbe 73af a33d bc6e 29bd 8d1d af3d
000003a0: b82f a43d b87d 1fbd 0c10 b93d 304a 55be
000003b0: 4a92 51bd cc9c f6bd 7f28 bc3e 3cf4 4c3e
000003c0: af92 993e 9ec4 133e 4478 a7be 7c06 d03c
000003d0: 96f0 e7bc c571 a23c 36ef 263e 2dc7 dcbc
000003e0: 9c6a 673e 8f6a 943d e1f4 223d 7efd c53d
000003f0: 1f5e 47be fe69 5e3d e408 903e 5f64 2abe

layers.1.weight f4 [512]
1.5047911 1.3345467 0.86487204 1.0926275 1.364963 1.7813123 0.8863055 0.987105
0.94874024 1.1902064 1.2171413 1.3828973 1.255947 1.3453522 0.9922739 0.99089646
1.3366688 1.8720185 1.1089276 1.6750906 1.7947928 0.78980184 1.2626125 2.0052707
1.3686733 1.9190823 0.8118288 1.3828222 0.88767827 1.1670638 0.87270576 1.6378558
2.815951 1.1437051 1.5204363 0.84084576 1.7786317 1.7973661 1.139549 1.1660489
1.4253615 1.5117284 2.196027 1.4450228 1.592321 1.2255769 1.2879514 0.75868994
0.7699062 1.835145 1.6098965 1.8207499 1.0947114 2.1697302 1.6049691 1.4774032
2.8226333 1.0389804 2.029472 2.0187798 1.5259504 0.7977797 0.8574711 2.0012841
1.2856276 1.2316301 1.3127332 1.735875 0.72296876 1.4484546 1.0978162 1.3406957
1.1114556 2.197946 1.3401619 0.7841051 1.0395863 1.5438155 1.4710749 1.2183526
1.9293127 1.0601647 1.8061109 0.8402029 1.2293892 1.0035506 2.3738787 2.0550122
0.90066427 1.4210223 1.0664142 1.9188172 0.77912754 1.3524084 1.2334144 0.9588377
0.75978446 1.9679738 2.3879035 0.8807179 0.8099454 1.227181 1.5009224 1.9128853
1.327335 1.5007521 2.1727214 1.1734828 1.2870085 1.1188529 0.622181 1.7090638
1.5231111 1.640244 1.0645097 0.93839735 0.9441772 0.8776569 0.9966268 0.8378313
1.3506457 0.9660785 1.311252 1.1879532 0.9595837 1.1633635 2.0351534 1.0869343
0.94395566 1.0328337 1.1469755 0.8098919 1.0402757 1.44723 1.1687602 1.9669343
0.8066613 0.84206593 0.90772283 0.9571727 0.9084259 1.1139877 1.7558708 1.1678641
1.6046957 2.380916 1.5986403 1.1319424 2.0561838 0.7768928 0.9380127 0.56416136
0.94013834 1.7518542 0.8931044 1.4551312 0.99899405 1.2047148 0.9987974 1.679834
1.0049711 0.72767544 1.6179065 0.98525876 1.2929533 1.2546846 1.9079796 0.9669451
1.5904168 0.88981295 1.2274275 0.9745155 1.3784857 1.1113561 0.9808409 2.0728848
1.351749 0.93718064 1.1096948 1.4917369 1.4356817 0.6801849 0.7480945 1.4418771
1.2777721 1.9749153 1.7242718 2.1989217 1.7334381 1.6895751 1.1045096 0.92598015
0.9003738 0.7562415 1.1499748 1.0380669 0.8166901 1.6336479 1.3691427 0.80868614
2.4398544 1.0359948 1.0910376 1.7430859 0.99970984 2.0346096 1.3273237 0.834798
1.3191559 1.3232198 1.1302326 0.72250503 0.94311714 0.74206364 1.456608 1.02737
1.0938407 0.91996425 0.98358953 1.2301278 1.2989749 1.8167003 0.91544056 1.3753971
0.75336945 2.2175417 0.6766536 1.3297825 0.8446792 1.3896282 1.069807 1.648082
1.647853 0.9478004 1.1616381 1.6745355 1.873597 0.9406295 1.1323731 1.1127782
2.036552 0.97477347 1.4176085 1.956757 1.1675947 0.8245078 1.3261542 1.3731563
2.3010633 1.0206791 1.2176981 1.4767206 1.9361266 1.2125491 1.9179827 1.3124784
00000000: ff9c c03f 6dd2 aa3f 4168 5d3f 38db 8b3f
00000010: 1cb7 ae3f 0b02 e43f ebe4 623f eab2 7c3f
00000020: a4e0 723f af58 983f 49cb 9b3f c702 b13f
00000030: dfc2 a03f 8034 ac3f aa05 7e3f 64ab 7d3f
00000040: f717 ab3f 4d9e ef3f 57f1 8d3f 5e69 d63f
00000050: c5bb e53f 7430 4a3f 499d a13f 5b56 0040
00000060: b030 af3f 7da4 f53f 03d4 4f3f 5100 b13f
00000070: e23e 633f 5962 953f a569 5f3f 42a5 d13f
00000080: 8b38 3440 ee64 923f a89d c23f ab41 573f
00000090: 34aa e33f 1810 e63f bedc 913f 1741 953f
000000a0: 3f72 b63f 5180 c13f b58b 0c40 82f6 b83f
000000b0: 2dd1 cb3f b4df 9c3f 97db a43f 8139 423f
000000c0: 9318 453f 08e6 ea3f 1711 ce3f 550e e93f
000000d0: 811f 8c3f dcdc 0a40 a16f cd3f 8c1b bd3f
000000e0: 06a6 3440 4ffd 843f dfe2 0140 b033 0140
000000f0: 5852 c33f 4a3b 4c3f 3a83 5b3f 0a15 0040
00000100: 728f a43f 0ea6 9d3f a407 a83f 2731 de3f
00000110: 7b14 393f f666 b93f 3e85 8c3f eb9b ab3f
00000120: 2d44 8e3f 26ab 0c40 6d8a ab3f 1dbb 483f
00000130: 2a11 853f bf9b c53f 2f4c bc3f faf2 9b3f
00000140: b8f3 f63f 7ab3 873f a42e e73f 8a17 573f
00000150: a05c 9d3f 5974 803f a1ed 1740 5285 0340
00000160: ef91 663f 0fe4 b53f 4380 883f cd9b f53f
00000170: e774 473f b81b ad3f 86e0 9d3f 6376 753f
00000180: 3c81 423f 91e6 fb3f 69d3 1840 ba76 613f
00000190: 9558 4f3f 4414 9d3f 3a1e c03f 6dd9 f43f
000001a0: 1de6 a93f a518 c03f de0d 0b40 af34 963f
000001b0: b2bc a43f 9236 8f3f 4147 1f3f 9ac2 da3f
000001c0: 4ef5 c23f 84f3 d13f db41 883f cf3a 703f
000001d0: 99b5 713f 1fae 603f ef22 7f3f 1d7c 563f
000001e0: f5e1 ac3f ec50 773f 1bd7 a73f da0e 983f
000001f0: 47a7 753f 18e9 943f f43f 0240 aa20 8b3f
00000200: 14a7 713f e533 843f 18d0 923f 1355 4f3f
00000210: c127 853f d53e b93f ef99 953f 81c4 fb3f
00000220: 5b81 4e3f a291 573f 8660 683f 4509 753f
00000230: 9a8e 683f 2697 8e3f 60c0 e03f 927c 953f
00000240: ab66 cd3f ee60 1840 3fa0 cc3f 7de3 903f
00000250: 8498 0340 72e2 463f 9a21 703f e16c 103f
00000260: e8ac 703f c23c e03f 7da2 643f bd41 ba3f
00000270: 13be 7f3f 1834 9a3f 30b1 7f3f cd04 d73f
00000280: e5a2 803f f048 3a3f 8f17 cf3f eb39 7c3f
00000290: 7e7f a53f 8199 a03f ad38 f43f b789 773f
000002a0: c792 cb3f c8ca 633f 581c 9d3f d979 793f
000002b0: 3872 b03f eb40 8e3f 6418 7b3f 25aa 0440
000002c0: 1c06 ad3f 12eb 6f3f 7b0a 8e3f 3cf1 be3f
000002d0: 6bc4 b73f 9920 2e3f 1f83 3f3f 6e8f b83f
000002e0: 098e a33f 06ca fc3f f0b4 dc3f 22bb 0c40
000002f0: 4de1 dd3f ff43 d83f 9260 8d3f 090d 6d3f
00000300: e67e 663f 0b99 413f 6032 933f 60df 843f
00000310: 9a12 513f 601b d13f 1140 af3f 0e06 4f3f
00000320: 9326 1c40 7a9b 843f 1fa7 8b3f 701d df3f
00000330: fcec 7f3f 0b37 0240 bee5 a93f 52b5 553f
00000340: 1ada a83f 445f a93f 76ab 903f 17f6 383f
00000350: 2070 713f e2f7 3d3f 2272 ba3f dc80 833f
00000360: f902 8c3f c782 6b3f 86cc 7b3f d474 9d3f
00000370: cf44 a63f a389 e83f 505a 6a3f 030d b03f
00000380: d2dc 403f 34ec 0d40 2c39 2d3f 5036 aa3f
00000390: e53c 583f 56df b13f 70ef 883f 5af4 d23f
000003a0: d9ec d23f 0ca3 723f 8fb0 943f 2e57 d63f
000003b0: 07d2 ef3f 18cd 703f 9af1 903f 846f 8e3f
000003c0: de56 0240 c18a 793f 3274 b53f 0377 fa3f
000003d0: be73 953f f112 533f 6cbf a93f 96c3 af3f
000003e0: 9f44 1340 9da5 823f 88dd 9b3f 2e05 bd3f
000003f0: ffd2 f73f cf34 9b3f 7580 f53f 4bff a73f

layers.1.bias f4 [512]
-0.3422959 -0.23332986 -0.389637 -0.391736 -0.3668583 -0.36584878 -0.2006484 -0.31184685
-0.27904102 -0.35160753 -0.3132887 -0.25132248 -0.35380712 -0.68670744 -0.47649038 -0.36784554
-0.34577492 -0.443425 -0.29754192 -0.592579 -0.4340338 -0.29005387 -0.47970238 -0.4872757
-0.2454843 -0.40658984 -0.3575498 -0.5373288 -0.42604518 -0.51118684 -0.4263385 -0.5673356
-0.14830236 -0.417118 -0.29922906 -0.343173 -0.21861744 -0.37110814 -0.28567696 -0.5706069
-0.49372464 -0.35558277 -0.27325502 -0.31286645 -0.46612838 -0.59214514 -0.33339942 -0.38830963
-0.33568105 -0.6122567 -0.5741921 -0.51691216 -0.22381715 -0.19064994 -0.45895585 -0.59027135
-0.14403099 -0.34809494 -0.26414433 -0.31644267 -0.3999725 -0.3353335 -0.30656746 -0.2910874
-0.48414254 -0.4888249 -0.44861227 -0.36833954 -0.31130692 -0.51342785 -0.3647567 -0.2742986
-0.40337595 -0.5323563 -0.5387618 -0.24341162 -0.3380489 -0.16270958 -0.44733256 -0.23402895
-0.58689857 -0.2951282 -0.31498998 -0.32003862 -0.41151586 -0.2621603 -0.3372318 -0.4970933
-0.33985406 -0.4661821 -0.3834424 -0.43931243 -0.4601427 -0.4911596 -0.36526284 -0.4760166
-0.33235556 -0.31387234 -0.39866954 -0.26867318 -0.29827338 -0.6594112 -0.41980538 -0.51820284
-0.43035766 -0.45479062 -0.4843887 -0.41346797 -0.41991642 -0.37410903 -0.24778104 -0.4525238
-0.5771866 -0.50974846 -0.3780793 -0.2771475 -0.5153225 -0.35127193 -0.21995345 -0.4785732
-0.20674106 -0.3613477 -0.36316907 -0.59023476 -0.39623827 -0.47444263 -0.21624805 -0.5581205
-0.47503552 -0.27573365 -0.22223432 -0.24691202 -0.2981365 -0.72255534 -0.122022 -0.3260785
-0.3460524 -0.34076086 -0.22700188 -0.417546 -0.34517947 -0.23995018 -0.29559883 -0.4227994
-0.95021033 -0.2615405 -0.65205204 -0.32721382 -0.29667068 -0.37707573 -0.34593117 -0.21481131
-0.39389712 -0.41352874 -0.37807745 -0.371859 -0.2732407 -0.44916925 -0.3362297 -0.4192723
-0.40154302 -0.2619575 -0.5034129 -0.25206187 -0.14981277 -0.43992078 -0.44979906 -0.41451293
-0.23396817 -0.4185428 -0.5318508 -0.31791002 -0.4573885 -0.36925882 -0.5858004 -0.3290937
-0.39779842 -0.34051442 -0.3341406 -0.47750148 -0.4767753 -0.34099853 -0.30897698 -0.46474928
-0.38326746 -0.39974734 -0.41544163 -0.2344092 -0.35525653 -0.69960225 -0.37476593 -0.25813946
-0.42649817 -0.35072243 -0.36052737 -0.36899787 -0.23398271 -0.20996203 -0.42928967 -0.38676515
-0.71525353 -0.4528509 -0.44011047 -0.6661789 -0.45748213 -0.25938317 -0.4792978 -0.40561384
-0.30853367 -0.31727612 -0.3971244 -0.30682617 -0.20527346 -0.30122662 -0.22548608 -0.34493563
-0.2623484 -0.3618656 -0.3876876 -0.3792395 -0.4918849 -0.48704335 -0.25488597 -0.40877476
-0.5165556 -0.54492784 -0.35118705 -0.63550144 -0.26009348 -0.27234805 -0.22032031 -0.45277268
-0.26933756 -0.31333944 -0.42357138 -0.43688473 -0.2703946 -0.2806218 -0.229311 -0.46306732
-0.2380725 -0.45311174 -0.42291257 -0.25390103 -0.36766014 -0.24165525 -0.44555682 -0.44856665
-0.3787249 -0.455027 -0.34690508 -0.37157553 -0.53877676 -0.6371446 -0.18478125 -0.4482841
00000000: 6941 afbe 06ee 6ebe 807e c7be 9f91 c8be
00000010: dad4 bbbe 8850 bbbe c676 4dbe 64aa 9fbe
00000020: 77de 8ebe e705 b4be 6067 a0be 57ad 80be
00000030: 3526 b5be 0fcc 2fbf 8cf6 f3be 4056 bcbe
00000040: 6909 b1be 9a08 e3be 6a57 98be 42b3 17bf
00000050: ae39 debe f181 94be 8d9b f5be 337c f9be
00000060: 3d60 7bbe 8b2c d0be c410 b7be 618e 09bf
00000070: 9822 dabe 24dd 02bf 0a49 dabe e83c 11bf
00000080: 93dc 17be 7e90 d5be 8d34 99be 5fb4 afbe
00000090: 40dd 5fbe e301 bebe 4044 92be 4b13 12bf
000000a0: 7ac9 fcbe f20e b6be 15e8 8bbe 0830 a0be
000000b0: 61a8 eebe d396 17bf 54b3 aabe 85d0 c6be
000000c0: 63de abbe dbbc 1cbf 41fe 12bf 5b54 04bf
000000d0: 5330 65be bd39 43be 43fc eabe 061c 17bf
000000e0: dc7c 13be 8039 b2be ed3d 87be c604 a2be
000000f0: 32c9 ccbe d5b0 abbe 69f6 9cbe 6809 95be
00000100: 88e1 f7be 4247 fabe 82b0 e5be 0097 bcbe
00000110: 9f63 9fbe 0270 03bf 64c1 babe de70 8cbe
00000120: 4b87 cebe 8148 08bf 4bec 09bf e540 79be
00000130: bf14 adbe 579d 26be c608 e5be 49a5 6fbe
00000140: fc3e 16bf 0b1b 97be 5e46 a1be 1adc a3be
00000150: 35b2 d2be e039 86be a6a9 acbe 0383 febe
00000160: 5a01 aebe 6caf eebe 9052 c4be 8fed e0be
00000170: d397 ebbe 4579 fbbe bb03 bbbe 73b8 f3be
00000180: 822a aabe e0b3 a0be 6a1e ccbe 888f 89be
00000190: 4ab7 98be 2ccf 28bf bbf0 d6be f1a8 04bf
000001a0: d757 dcbe 51da e8be cc01 f8be 13b2 d3be
000001b0: 49ff d6be 388b bfbe 50ba 7dbe 33b1 e7be
000001c0: 80c2 13bf e07e 02bf 9c93 c1be 47e6 8dbe
000001d0: 2dec 03bf ead9 b3be 7a3b 61be 8c07 f5be
000001e0: eeb3 53be 9102 b9be 4cf1 b9be a019 17bf
000001f0: bedf cabe 25ea f2be 2170 5dbe fce0 0ebf
00000200: db37 f3be f62c 8dbe 6591 63be 81d6 7cbe
00000210: 59a5 98be 63f9 38bf ace6 f9bd c3f3 a6be
00000220: c82d b1be 3578 aebe 2e73 68be 97c8 d5be
00000230: 5dbb b0be 80b5 75be bb58 97be 2a79 d8be
00000240: fc40 73bf a3e8 85be e2ec 26bf 9288 a7be
00000250: 38e5 97be 1210 c1be e41d b1be 7ff7 5bbe
00000260: e2ac c9be 0aba d3be 5e93 c1be 4e64 bebe
00000270: 34e6 8bbe 83f9 e5be 4d26 acbe dcaa d6be
00000280: 0c97 cdbe 4b1f 86be abdf 00bf 410e 81be
00000290: 8568 19be 4c3d e1be 104c e6be 0a3b d4be
000002a0: 5a95 6fbe 3e4b d6be 6027 08bf 1ac5 a2be
000002b0: d32e eabe 7e0f bdbe 04f7 15bf f87e a8be
000002c0: 3cac cbbe e857 aebe 7a14 abbe 137b f4be
000002d0: e41b f4be 5c97 aebe 3b32 9ebe 9ef3 edbe
000002e0: a23b c4be afab ccbe c4b4 d4be f708 70be
000002f0: 2fe4 b5be 2219 33bf 52e1 bfbe db2a 84be
00000300: f85d dabe e491 b3be 0b97 b8be 4aed bcbe
00000310: 2a99 6fbe 4900 57be dbcb dbbe 1506 c6be
00000320: db1a 37bf 13dc e7be 2956 e1be b38a 2abf
00000330: 193b eabe dfcd 84be 8566 f5be 9eac cfbe
00000340: 20f8 9dbe 0472 a2be e453 cbbe 5218 9dbe
00000350: 3533 52be 603a 9abe d3e5 66be 679b b0be
00000360: 8852 86be 7346 b9be fd7e c6be ae2b c2be
00000370: 56d8 fbbe bf5d f9be 6a80 82be ed4a d1be
00000380: fd3c 04bf 6480 0bbf cace b3be 39b0 22bf
00000390: f92a 85be 3471 8bbe a69b 61be d2d1 e7be
000003a0: 9de6 89be 076e a0be 59de d8be 5baf dfbe
000003b0: 2971 8abe a9ad 8fbe 81d0 6abe 2917 edbe
000003c0: 47c9 73be 43fe e7be ff87 d8be 51ff 81be
000003d0: f33d bcbe 7974 77be 0620 e4be 87aa e5be
000003e0: 3be8 c1be 4df9 e8be 8b9d b1be 263f bebe
000003f0: 46ed 09bf e91b 23bf 4c37 3dbe 7e85 e5be

layers.4.weight f4 [256, 512]
-0.010211395 -0.06559563 0.20658198 -0.111906245 0.23772162 0.020464396 0.25323704 -0.04802772
0.028612334 -0.04138845 -0.0022066105 -0.22604641 0.061714936 -0.032776553 0.09646959 -0.0068541206
0.0531918 0.4126125 -0.021697396 0.026062181 -0.13857798 0.17915937 0.14547783 0.05233809
0.015346587 0.19326814 -0.009784556 0.08373449 -0.0014665764 0.14875902 0.1462816 0.19700001
0.375797 0.08428148 0.1442439 0.10345435 0.28841573 0.01266873 0.10747699 0.02122944
0.08733632 0.057141513 -0.050632875 -0.07521106 0.107104436 -0.026415702 -0.016227778 0.047984786
0.09107387 0.0124897715 0.03407852 0.088062696 0.06241655 0.30988687 -0.078721695 -0.06800757
-0.25260955 0.121038176 -0.00840602 -0.13461146 0.02731071 0.18970239 0.08679136 0.065540634
0.18830182 0.07368105 0.013508425 0.18094474 0.087855235 -0.10257736 -0.1691309 0.13028069
-0.070034675 0.23627764 0.20847392 0.08964006 0.09517375 0.14847828 0.20740668 0.101704456
-0.13266915 0.22335634 0.0049374015 0.10732008 0.054387107 0.025168924 0.34339377 -0.112313695
0.11913427 0.03287057 0.16745709 0.1470847 0.0011871643 -0.20858707 0.105801195 -0.019286523
0.2264835 0.05542497 0.13728255 0.12207771 0.061661452 -0.007052911 -0.030918155 0.116252854
-0.006998344 0.18802896 -0.024851048 -0.03423095 0.07478197 0.005471153 -0.02477314 0.19357783
0.007091996 0.21622507 0.052499015 0.019374445 -0.0809858 0.089170314 0.131058 0.08975917
0.14741707 -0.14836653 0.09967639 0.12892997 -0.025523555 -0.021959113 -0.2846243 0.07367445
0.07111232 -0.079352655 0.12322937 -0.065293595 0.20984699 0.18969913 0.06582413 0.08041624
-0.054345082 0.06231333 0.17636053 -0.024805587 0.013147823 0.06651973 0.05321904 0.15847856
0.1539013 -0.027958278 -0.18999976 -0.02018971 0.053369734 0.12935066 0.030551609 0.1339371
0.2587835 -0.07973354 0.22957474 0.22171095 0.037789788 0.16822676 0.077674516 0.18772212
0.16033828 0.1657503 -0.02001174 0.03896541 -0.01117682 -0.04340562 0.06402754 0.2179978
0.21493559 0.07221791 0.0362414 -0.04246859 -0.004778824 0.056884762 0.19172683 0.11799374
0.085647985 0.06494134 0.14116487 0.02174076 -0.01224707 0.14663558 0.07270178 0.31263497
0.19349296 -0.20936714 -0.12899189 0.24597767 -0.021062613 0.10191466 0.091075726 0.18318638
0.21025875 0.08286129 0.11442313 0.14476469 0.17124707 0.08084301 0.026476482 0.07581475
0.04457128 0.022018192 -0.13938233 0.23997506 -0.057507947 0.121595666 -0.070006564 0.14072193
0.10567018 0.11206504 0.1730137 0.18064184 0.061528277 0.12195198 0.13949437 0.23886454
0.058827635 0.039877303 0.10628335 -0.045532376 0.08889724 0.055589482 -0.0907718 -0.057538547
-0.010905736 -0.11679417 -0.010860044 -0.041346412 -0.03170904 -0.038014747 0.04453955 -0.04523308
0.048545327 0.026169293 0.10497338 -0.011992015 0.021116795 0.15071571 -0.025741806 -0.024931764
6.815137e-05 -0.08853985 0.1030988 -0.09683784 0.11918915 0.2724443 0.009860867 0.21154374
0.09982868 0.07569991 0.14715292 0.016750174 0.2300239 0.1525209 -0.093133286 0.043379404
00000000: b24d 27bc 0057 86bd 3a8a 533e 1a2f e5bd
00000010: 4c6d 733e f3a4 a73c 49a8 813e b7b8 44bd
00000020: 6a64 ea3c ef86 29bd c89c 10bb b678 67be
00000030: cdc8 7c3d b540 06bd d991 c53d 8898 e0bb
00000040: a5df 593d f241 d33e bdbe b1bc 5b80 d53c
00000050: 63e7 0dbe 8e75 373e 24f8 143e 7760 563d
00000060: 4070 7b3c 15e8 453e 674f 20bc fd7c ab3d
00000070: 233a c0ba 4954 183e d8ca 153e 5fba 493e
00000080: 7768 c03e c59b ac3d acb4 133e e0df d33d
00000090: 3aab 933e 8190 4f3c e51c dc3d 5de9 ad3c
000000a0: 62dd b23d 380d 6a3d 6b64 4fbd 4208 9abd
000000b0: 9259 db3d be65 d8bc 1ef0 84bc b28b 443d
000000c0: f084 ba3d e6a1 4c3c eb95 0b3d 375a b43d
000000d0: 7fa8 7f3d 7ea9 9e3e d738 a1bd 8e47 8bbd
000000e0: 0a56 81be dde2 f73d 67b9 09bc 96d7 09be
000000f0: b6ba df3c 5841 423e abbf b13d 2b3a 863d
00000100: 31d2 403e 17e6 963d 7152 5d3c 9449 393e
00000110: 72ed b33d 1414 d2bd a730 2dbe 4d68 053e
00000120: 576e 8fbd c4f2 713e 307a 553e 3595 b73d
00000130: 74ea c23d b10a 183e 6b62 543e 6d4a d03d
00000140: 6cda 07be 86b7 643e edc9 a13b a1ca db3d
00000150: 04c5 5e3d 0f2f ce3c 4fd1 af3e b904 e6bd
00000160: abfc f33d 4aa3 063d df79 2b3e 5f9d 163e
00000170: a09a 9b3a d997 55be 4cae d83d c5fe 9dbc
00000180: 4aeb 673e 4b05 633d cc93 0c3e e103 fa3d
00000190: b890 7c3d 1b1c e7bb 1248 fdbc fa15 ee3d
000001a0: 5d52 e5bb aa8a 403e 6d94 cbbc c135 0cbd
000001b0: 4a27 993d 5c47 b33b 0af1 cabc 4439 463e
000001c0: f963 e83b 1b6a 5d3e 3509 573d 28b7 9e3c
000001d0: e2db a5bd ed9e b63d 1134 063e a8d3 b73d
000001e0: 80f4 163e 65ed 17be 2323 cc3d 3806 043e
000001f0: c616 d1bc 99e3 b3bc 47ba 91be a1e2 963d
00000200: 56a3 913d a583 a2bd ae5f fc3d a6b8 85bd
00000210: 21e2 563e 7d40 423e cdce 863d 45b1 a43d
00000220: f398 5ebd 433c 7f3d db97 343e 1635 cbbc
00000230: f769 573c 7f3b 883d 35fc 593d 3448 223e
00000240: 4d98 1d3e c208 e5bc 4c8f 42be e464 a5bc
00000250: 399a 5a3d 8074 043e 5e47 fa3c cf26 093e
00000260: 457f 843e 574b a3bd a415 6b3e 3208 633e
00000270: 77c9 1a3d a343 2c3e d113 9f3d 3a3a 403e
00000280: b82f 243e 72ba 293e a9ef a3bc 329a 1f3d
00000290: fb1e 37bc 17ca 31bd df20 833d d13a 5f3e
000002a0: 1318 5c3e fce6 933d dd71 143d 8bf3 2dbd
000002b0: ae97 9cbb ffff 683d 0a54 443e b4a6 f13d
000002c0: 3668 af3d f7ff 843d 868d 103e ae19 b23c
000002d0: efa7 48bc a327 163e ace4 943d b111 a03e
000002e0: 0523 463e 5764 56be 7316 04be 92e1 7b3e
000002f0: 808b acbc a2b8 d03d e985 ba3d 3695 3b3e
00000300: 124e 573e 2eb3 a93d ad56 ea3d 323d 143e
00000310: 645b 2f3e 0591 a53d 35e5 d83c c344 9b3d
00000320: 6090 363d 7f5f b43c 3eba 0ebe 06bc 753e
00000330: 748d 6bbd 2607 f93d 9a5f 8fbd 6919 103e
00000340: 9b69 d83d 5b82 e53d 812a 313e 2dfa 383e
00000350: 1305 7c3d f6c1 f93d 9dd7 0e3e e898 743e
00000360: 3ff5 703d 6256 233d 16ab d93d 2880 3abd
00000370: c20f b63d ccb1 633d 91e6 b9bd 8aad 6bbd
00000380: f9ad 32bc c831 efbd 53ee 31bc db5a 29bd
00000390: 57e1 01bd 5ab5 1bbd 1a6f 363d 5246 39bd
000003a0: 77d7 463d fc60 d63c 49fc d63d 287a 44bc
000003b0: 21fd ac3c 3855 1a3e 7be0 d2bc b33d ccbc
000003c0: 7dec 8e38 6254 b5bd 7725 d33d eb52 c6bd
000003d0: 7119 f43d d27d 8b3e 798f 213c ec9e 583e
000003e0: fb72 cc3d 8e08 9b3d 41af 163e a937 893c
000003f0: 638b 6b3e 702e 1c3e aabc bebd 9aae 313d
