sac_cr_att_per_large/weights copy 3/qf.pt (torch, 313826 bytes, 11 tensors)

block1.att.bias f4 [7]
0	0xbfbf3ec9	-1.4941036
1	0x3ec815e8	0.39079213
2	0xbe83feff	-0.25780484
3	0x3d4f38cf	0.050591286
4	0x3f44d84b	0.76892537
5	0x3ecb3e6a	0.39696056
6	0xbde6453b	-0.112436734

block1.att.tokeys.weight f4 [35, 7]
0	0x40aa284c	5.317419
1	0xbec7107f	-0.38879773
2	0x3f13fb98	0.57805777
3	0xbe05e0aa	-0.13073984
4	0x402e990c	2.7280912
5	0x3e6b6728	0.2298857
6	0xbd871d22	-0.065973535
7	0xc06bce54	-3.6844683
8	0xc091fe8e	-4.5623236
9	0xbe607898	-0.21921003
10	0xbf277c19	-0.65423733
11	0xbf9b0b47	-1.2112817
12	0xbefe238b	-0.49636492
13	0xbc7514c6	-0.014958566
14	0xbf7284ae	-0.94733703
15	0xbfade221	-1.3584634
16	0xbee7b594	-0.4525572
17	0xbe9d8995	-0.3076903
18	0x400f1319	2.2355406
19	0xbd05b971	-0.032647554
20	0x3c7f91be	0.0155987125
21	0xbf13c9d0	-0.57729816
22	0xbf7aeb39	-0.9801517
23	0xbdee60f2	-0.116395846
24	0x3de39984	0.11113265
25	0x3d28c813	0.04120643
26	0x3e48c5c3	0.1960669
27	0xbd430c3c	-0.04761909
28	0xbf04ccb2	-0.5187484
29	0x3f285fa4	0.65770936
30	0x3da1661a	0.078808025
31	0xbe2d3722	-0.16915563
32	0xbf282d29	-0.6569391
33	0xbdeea19d	-0.11651919
34	0xbd990ac4	-0.074727565
35	0xc088e35f	-4.2777553
36	0x3ed7ab33	0.42122802
37	0xbfb11171	-1.3833448
38	0x3ec4d76d	0.38445607
39	0x4029f4e7	2.6555727
40	0xbf059ab9	-0.52189213
41	0xbe33493a	-0.17508402
42	0xbf1edb43	-0.62053317
43	0xbd7850b0	-0.060623825
44	0x3e9401f0	0.28907728
45	0x3f18dcd8	0.5971198
46	0x4039974c	2.8998594
47	0xbb9fe3ea	-0.0048794644
48	0x3e835cf9	0.2565687
49	0xbcc5caca	-0.024144549
50	0xbde74624	-0.11292675
51	0x3f19f724	0.6014273
52	0x3d909e16	0.070614025
53	0x3dfa92b5	0.122350134
54	0xbd9535a2	-0.0728562
55	0x3a8ff200	0.0010982156
56	0xbc3715d5	-0.011174639
57	0x3c70ab71	0.014689312
58	0xbbc6b2f3	-0.006063813
59	0xbcd5620b	-0.026047727
60	0xbb0bb5b7	-0.0021318027
61	0x3bb81be4	0.005618559
62	0xbc69ea88	-0.014277108
63	0x3d992d4f	0.07479345
64	0x3c28fe43	0.010314527
65	0xbd1100bf	-0.035401102
66	0xbd498f2c	-0.049208805
67	0x3f86355a	1.0485032
68	0xbeab5629	-0.33464172
69	0x3ca66545	0.020311961
70	0x3f1c72f5	0.6111291
71	0xbe40074c	-0.18752784
72	0x3ea9eb5c	0.33187377
73	0xbd427ae5	-0.047480483
74	0xbe17b7f6	-0.1481627
75	0xbf30657b	-0.68904847
76	0x3d1a9895	0.03774317
77	0xbd0951d2	-0.033525296
78	0x3d00260b	0.03128628
79	0xbcb6e5a0	-0.02232629
80	0x3e621562	0.2207847
81	0xbf54a8be	-0.8306998
82	0xbed43997	-0.41450188
83	0x3d446984	0.04795219
84	0x3ebd88f5	0.37018552
85	0x3ddefed1	0.10888446
86	0x3d7e47e1	0.062080268
87	0x3e4fa846	0.20279035
88	0x3e67101a	0.22564736
89	0x3e18809f	0.14892815
90	0x3e0e9a1f	0.1392598
91	0x3e41eceb	0.18938033
92	0x3deda758	0.11604184
93	0x3e2ab2e4	0.16669804
94	0xbe3d539f	-0.1848893
95	0xbf38c216	-0.7217115
96	0xbf953623	-1.1657146
97	0x3e1647df	0.14675854
98	0x3ea313e5	0.31851116
99	0x3ead027e	0.33790964
100	0xbe042567	-0.12904893
101	0x3b824222	0.003975169
102	0x40952680	4.6609497
103	0xbf2c4f91	-0.6730891
104	0x3e56ac95	0.20964272
105	0xc028c1dc	-2.6368322
106	0x3e7855ed	0.24251528
107	0xbef4b3df	-0.4779348
108	0xbeac11a6	-0.33607215
109	0xc006b6f3	-2.1049163
110	0x3bdf0bcd	0.0068068267
111	0x3ec4c3cb	0.38430628
112	0xc0b2565b	-5.5730414
113	0x3f78ceef	0.97190756
114	0xbf9fb584	-1.2477269
115	0xbd653124	-0.055955067
116	0x3f914cf3	1.1351608
117	0x3ec6a333	0.38796386
118	0xbe1c27c4	-0.15249544
119	0x3df5ab50	0.11995566
120	0xc0db1399	-6.8461423
121	0x3df81c53	0.121147774
122	0xbf8ad3ae	-1.084585
123	0xbfca1183	-1.5786594
124	0xbdf29013	-0.11843886
125	0xbdc1d0dc	-0.09463665
126	0x3d45bebf	0.048277613
127	0x40b4429c	5.633131
128	0x3f2d7c0b	0.677674
129	0x3f454a64	0.77066636
130	0xc07a334c	-3.909381
131	0x3f1f7a09	0.62295586
132	0xbd882705	-0.066480674
133	0x408cceac	4.4002285
134	0xc03bf12f	-2.9365957
135	0x3f2b98a4	0.67029786
136	0xbf82f132	-1.0229857
137	0x3fc3d7ba	1.530021
138	0xbdd1560b	-0.102214895
139	0x3dbe1cf2	0.09282865
140	0x409a3085	4.818423
141	0xbf831571	-1.0240918
142	0x3f27ac9e	0.6549777
143	0xbe24edde	-0.16106364
144	0x3fa1b04a	1.2631924
145	0x3f50563d	0.8138159
146	0x3e2f63ec	0.17127961
147	0x3d0354b8	0.032063216
148	0x3d6eb4fa	0.05827806
149	0xbe86a280	-0.26295853
150	0xbed2a2c9	-0.4113982
151	0x406d9fac	3.7128706
152	0x3e62962f	0.22127603
153	0xbe350a88	-0.17679799
154	0xc0374b3f	-2.8639677
155	0x40c55915	6.1671243
156	0xbef23414	-0.47305357
157	0x3fa9c10a	1.3262036
158	0xbfb97095	-1.4487482
159	0xbdf8f7e3	-0.12156656
160	0xbd956c7b	-0.07296082
161	0xbfbd0ae8	-1.4768953
162	0xc0c6b2a9	-6.209309
163	0xbf076261	-0.5288449
164	0xbf81b815	-1.0134302
165	0x3f9c3ae1	1.2205468
166	0xbbe0d769	-0.0068616164
167	0xbbdf2552	-0.006809869
168	0xbf31d3bf	-0.69463724
169	0xc0449de1	-3.0721362
170	0xbb4bcf2e	-0.003109883
171	0xbf711eb9	-0.94187504
172	0xbfc206b9	-1.5158302
173	0x3e38b757	0.18038689
174	0x3ce1a66d	0.027545178
175	0x40843ec8	4.1326637
176	0xbf84ec56	-1.0384624
177	0x3fbc72a1	1.4722482
178	0xbebd47e3	-0.36968908
179	0xc0097a69	-2.1480963
180	0x3d574c0d	0.052562762
181	0xbe64dea5	-0.22350557
182	0x40d46454	6.637247
183	0xbfd2db88	-1.6473246
184	0x3f8ce72f	1.1008052
185	0xbf186473	-0.59528273
186	0x403b780d	2.9292023
187	0xbe9ac0eb	-0.3022531
188	0x3e4ec627	0.20192777
189	0x40eba64d	7.3640504
190	0x4012bc0a	2.292727
191	0x3fc8e844	1.5695882
192	0x3ee724e0	0.4514532
193	0x4037e65a	2.8734345
194	0xbe5f22c9	-0.21790613
195	0xbcd897a3	-0.026439494
196	0x3ec5a5e3	0.38603124
197	0xbe8a6a40	-0.27034187
198	0xbe79cb2e	-0.24393913
199	0x3e0186b5	0.12649043
200	0x3f9f1df1	1.2431012
201	0xbe5778de	-0.21042201
202	0x3e34bbc9	0.1764976
203	0xbfd7a4aa	-1.6847126
204	0xbf86d617	-1.0534085
205	0xbeaab4a4	-0.33340943
206	0xbdde141c	-0.10843679
207	0xbf8f196b	-1.1179632
208	0xbe276863	-0.16348414
209	0x3e4fbc3b	0.20286648
210	0xbfa30239	-1.2735053
211	0xbf828815	-1.0197779
212	0xbe87fd3d	-0.26560393
213	0xbe0c01bf	-0.13672541
214	0x3f2a1b2c	0.6644771
215	0x3ea409fd	0.3203887
216	0x3eb6d270	0.35707426
217	0xbed3ddd0	-0.41380167
218	0xbcda6df5	-0.02666376
219	0xbe2405d0	-0.16017842
220	0xbe3e2b00	-0.1857109
221	0x3d3aa56a	0.045567907
222	0xbe8829f3	-0.26594505
223	0x3d8eba7d	0.069691636
224	0xbe7449a3	-0.23856215
225	0x3e0774c2	0.13228133
226	0xbc26eebb	-0.010188754
227	0x3e79b5fb	0.24385826
228	0xbe998e83	-0.2999154
229	0xbcdeb1a3	-0.027184313
230	0x3eb853b8	0.36001372
231	0x3d1d0817	0.038337793
232	0xbc17732d	-0.009243769
233	0x3cb4b0e2	0.022057
234	0x3bd2ec34	0.006436849
235	0x3d2cbbb7	0.042171206
236	0xbd3ead7a	-0.04655216
237	0x3d383674	0.044973806
238	0x3fc5995b	1.5437425
239	0x3fbbe470	1.4679089
240	0x3e990d6a	0.29893047
241	0x3d743a56	0.059625946
242	0x3fbdc0e4	1.482449
243	0x3d992fd6	0.07479827
244	0xbed52d76	-0.41636246

block1.att.toqueries.weight f4 [35, 5]
0	0xbd8a4448	-0.06751305
1	0xbe1ee47a	-0.15516844
2	0x3d474d62	0.048657782
3	0x3e285769	0.16439594
4	0x3c364055	0.011123736
5	0x3cdd5324	0.027017184
6	0xbedf1b58	-0.4357555
7	0xbda3e2db	-0.080022536
8	0x3ee9a435	0.45633093
9	0xbbf81f26	-0.0075720726
10	0xbda5ece0	-0.08101821
11	0xbe61617c	-0.22009844
12	0x3e4543de	0.1926417
13	0x3d97963a	0.074017
14	0x3d595289	0.053057227
15	0x3d83a0b7	0.06427138
16	0x3db3cbca	0.08779104
17	0x3ec9fd33	0.39450988
18	0xbd93b57f	-0.07212352
19	0x3d490961	0.04908121
20	0x3f25706e	0.6462468
21	0xbd02abba	-0.031902052
22	0x3ea3b139	0.31971148
23	0x3ee0eea6	0.43932074
24	0x3dc135c9	0.09434087
25	0xbd8ee4a2	-0.06977202
26	0x3d8427bb	0.064528905
27	0xbde2d179	-0.1107511
28	0xbdd017ee	-0.10160814
29	0x3defe24f	0.11713087
30	0xbda0797b	-0.078356706
31	0xbe894d62	-0.2681685
32	0x3ec081b5	0.3759896
33	0xbe2acc10	-0.16679406
34	0x3d21189e	0.039330117
35	0xbe02de3d	-0.1278009
36	0xbe8dd4c7	-0.277014
37	0x3e75546b	0.23957984
38	0x3c996fe2	0.018730108
39	0xbd905611	-0.07047666
40	0x406a2468	3.658472
41	0x3f2504e8	0.6446061
42	0x3f5df5b1	0.8670302
43	0x411039f9	9.0141535
44	0x3e7d12ed	0.24714251
45	0xbe1e477e	-0.1545696
46	0xbeabef41	-0.33580974
47	0xbd8fff2a	-0.070310906
48	0xbd28cfc8	-0.04121378
49	0x3ca9af0a	0.020713348
50	0xbee2b435	-0.44278112
51	0xbd6cf3bf	-0.057849642
52	0x3d94a8c4	0.07258752
53	0x3c9983ad	0.018739546
54	0xbd0aee8a	-0.033918895
55	0x3efc6773	0.49297675
56	0xbf10ee78	-0.56613874
57	0x3d554ce5	0.052075285
58	0xbc8b746d	-0.01702329
59	0x3d3e6285	0.046480674
60	0xbea0ebd2	-0.31429917
61	0x3dadc8f4	0.084855944
62	0xbe6caf20	-0.2311368
63	0x3cdbad7a	0.026816119
64	0x3cb737fd	0.022365564
65	0xbeeedbca	-0.4665206
66	0x3ccf0670	0.025271624
67	0x3b3b7aa6	0.002860704
68	0x3d750533	0.05981941
69	0xba593482	-0.00082857173
70	0xbf59c0f6	-0.8506006
71	0xbde9cd3f	-0.11416101
72	0x3e8b3f5c	0.27196777
73	0xbcb12dc0	-0.02162826
74	0x3d8abc0c	0.06774148
75	0x3eacc12d	0.3374113
76	0x3ccabc03	0.024747854
77	0xbe48b0b5	-0.19598658
78	0xbd246bfd	-0.04014205
79	0xbc8300c5	-0.015991578
80	0xbdc49c10	-0.09600079
81	0x3e6b5c36	0.22984394
82	0xbd8fd247	-0.07022529
83	0xbd890e70	-0.06692207
84	0x3d259fda	0.04043565
85	0x3e8f98d7	0.28046295
86	0xbe4259ca	-0.18979564
87	0x3db394ac	0.08768591
88	0x3db9c6d9	0.0907113
89	0x3ab255bc	0.0013605873
90	0x3e105d6c	0.14098138
91	0x3e585714	0.21126968
92	0xbe6ecc9e	-0.23320243
93	0xbe4b26e4	-0.19839054
94	0xbdf1b46f	-0.11801993
95	0xbe94bf13	-0.29052028
96	0xbe919ed0	-0.28441477
97	0x3e3f7c9d	0.1869988
98	0x3e17a5b0	0.14809299
99	0xbcd2ce7e	-0.025733229
100	0xbeed5c39	-0.46359423
101	0x3e2ba754	0.1676305
102	0xbe963c83	-0.29343042
103	0x3dcbad92	0.09945215
104	0x3c298217	0.010345957
105	0xbeff1c7f	-0.49826428
106	0xbe971923	-0.29511365
107	0x3edc7b10	0.4306264
108	0xbe1d505e	-0.15362689
109	0x3d96432b	0.0733703
110	0xbe17f30e	-0.14838812
111	0x3f1d5ee8	0.6147294
112	0x3e0a754d	0.13521309
113	0xbddfa825	-0.10920743
114	0x3caac842	0.020847443
115	0xbe3be08f	-0.18347381
116	0xbe82ba44	-0.25532734
117	0xbd972183	-0.07379439
118	0x3e74cd11	0.23906352
119	0x3c709f64	0.014686439
120	0x3e9fdd1e	0.31223387
121	0xbe166e53	-0.14690523
122	0xbd552d3a	-0.052045085
123	0x3dac67f4	0.08418265
124	0xbc5def91	-0.013545887
125	0xbdf44210	-0.11926663
126	0x3e92abcb	0.28646693
127	0x3c021027	0.007938421
128	0xbe341b28	-0.17588484
129	0xbb8397a7	-0.004015881
130	0xbef35116	-0.475228
131	0xbf06b207	-0.526154
132	0x3f1e75f5	0.6189874
133	0xbe81dd6b	-0.2536424
134	0xbcbeab72	-0.02327511
135	0x3e57efb3	0.21087532
136	0x3da71ccd	0.0815979
137	0x3e61af04	0.2203942
138	0xbe3ac5f3	-0.18239574
139	0x3d344db9	0.044019435
140	0xbea20445	-0.31643882
141	0xbcd7bdf5	-0.026335696
142	0xbcdb3315	-0.026757756
143	0xbcf2763d	-0.029597396
144	0xbb1c1e9b	-0.0023821953
145	0xbe33b0f5	-0.17547973
146	0x3edafb5c	0.42769897
147	0xbe44d120	-0.192204
148	0xbd95edcb	-0.07320746
149	0x3cacfca5	0.021116564
150	0xbe43894b	-0.19095342
151	0xbc4e298c	-0.012583148
152	0x3c7211c8	0.014774747
153	0xbc528090	-0.0128480345
154	0xbb7212cf	-0.003693748
155	0x3d75cdd4	0.060010746
156	0xbd3e9388	-0.046527416
157	0x3e1217d4	0.14266902
158	0x3cd0705c	0.025444202
159	0x3d49adc1	0.04923797
160	0xbf2fd7e4	-0.686888
161	0xbdd46804	-0.10371402
162	0x3d1dc470	0.038517416
163	0x3c64556b	0.013936381
164	0xbd22bbf7	-0.03973004
165	0x3e1c40ca	0.1525909
166	0x3fda1e8c	1.7040572
167	0xc01a2f01	-2.409119
168	0xc0acfcd6	-5.405864
169	0x3ccf394b	0.025295874
170	0xbde33912	-0.1109487
171	0x3f50d3b6	0.81573045
172	0x3ddbd3b0	0.107337356
173	0xbd386d14	-0.0450259
174	0x3d091ab6	0.03347274

block1.att.tovalues.weight f4 [35, 7]
0	0x3a3f1d75	0.0007290461
1	0x3c3d7197	0.011562726
2	0x3c1fbdb1	0.009749816
3	0xbae5e577	-0.0017539699
4	0x3a8e6416	0.0010863568
5	0xbc931963	-0.017956441
6	0xbcdb1481	-0.026743175
7	0xbf1dc622	-0.6163045
8	0xbdb9ad1a	-0.0906622
9	0xbf271847	-0.6527142
10	0xbd083cbb	-0.033261042
11	0xbd0e7e3c	-0.034788355
12	0xbee18d94	-0.44053328
13	0xbd83466b	-0.064099155
14	0xbf5d4b4e	-0.8644303
15	0xbebc35a2	-0.3675967
16	0xbe06c877	-0.13162409
17	0xbe3da042	-0.18518165
18	0xbd1d263f	-0.038366552
19	0x3d9461b4	0.07245198
20	0x3f26a274	0.65091634
21	0x3fa21725	1.2663313
22	0xbefb2544	-0.4905187
23	0x3e5fb0a8	0.21844733
24	0x3ef271c3	0.47352418
25	0x3e7b4527	0.24538098
26	0xbe459e15	-0.19298585
27	0x3e0dd133	0.13849334
28	0xbe2f6d08	-0.17131436
29	0x400c1876	2.188993
30	0x3d0d7314	0.034533575
31	0x3ecf6264	0.40504754
32	0x3dcc624d	0.09979687
33	0xbd905724	-0.07047871
34	0x3e339560	0.17537451
35	0xbf4166a4	-0.7554724
36	0xbeb082cf	-0.344748
37	0x3d9d2e34	0.07674828
38	0xbc27f9ba	-0.010252411
39	0x3f8beb42	1.093117
40	0xbf1636d0	-0.5867739
41	0xbd423cf5	-0.047421414
42	0xbff2b7cb	-1.8962339
43	0xbeed1ceb	-0.46311125
44	0xbead710e	-0.33875316
45	0x3e863f97	0.2622039
46	0xbe9a60d1	-0.3015199
47	0x3e86db63	0.26339254
48	0xbe33abd3	-0.17546014
49	0x3e447706	0.19186029
50	0x3e4e827a	0.2016696
51	0x3df60d42	0.120142475
52	0xbd1da9e1	-0.038492087
53	0x3fa83738	1.3141851
54	0x3e0e0cdd	0.13872094
55	0x3e3fd531	0.1873367
56	0xbdcb7206	-0.099338576
57	0x3ef62a26	0.48079032
58	0xbec1a58f	-0.37821624
59	0x3deb0ff6	0.11477654
60	0x3eed64a5	0.46365848
61	0xbf27bf89	-0.65526634
62	0xbeff5920	-0.49872684
63	0x3e3362c4	0.17518145
64	0xbf1f1313	-0.6213848
65	0xbe8ecc2f	-0.27890155
66	0xbecd6ecf	-0.40123603
67	0x3ee98f3d	0.45617095
68	0xbef8fc5d	-0.48630038
69	0xbd91a4de	-0.07111524
70	0x3f80325b	1.0015367
71	0xbe294b1e	-0.16532561
72	0x3d846fd5	0.06466643
73	0x3ed49999	0.41523436
74	0x3ef0e673	0.4705082
75	0xbd9aa674	-0.0755128
76	0xbde3e61c	-0.11127874
77	0xbe9a9606	-0.30192584
78	0xbe5334ab	-0.2062556
79	0xbbfdc836	-0.0077448143
80	0xb9164dfc	-0.00014334166
81	0xbf6d8666	-0.927832
82	0x3f140748	0.5782361
83	0xbf55ea1f	-0.83560365
84	0xbf38f3b5	-0.7224687
85	0xbe21d598	-0.15804136
86	0xbec0880b	-0.37603793
87	0x3eb360c6	0.3503477
88	0xbf753aff	-0.95793146
89	0x3e07115e	0.13190219
90	0x3f0434aa	0.5164286
91	0xbe358cb3	-0.17729454
92	0xbe3ba1c5	-0.18323429
93	0x3e0be529	0.13661636
94	0x3df52b5c	0.11971161
95	0x3fa84760	1.3146782
96	0xbf1f2dd4	-0.62179303
97	0xbe79a38b	-0.24378793
98	0xbfc6a4f6	-1.5519092
99	0x3e43e428	0.19130003
100	0x3e80b63d	0.25139037
101	0xbeaac1c9	-0.3335097
102	0xbf80c245	-1.0059286
103	0x3e2b3597	0.16719662
104	0x3d8641d2	0.06555523
105	0x3e780559	0.2422079
106	0x40634482	3.5510564
107	0x3e521461	0.20515586
108	0x3f06ea67	0.5270142
109	0x3f1d3aee	0.61418045
110	0xbe6973c7	-0.22798072
111	0xbe89053f	-0.26761815
112	0x3fac369b	1.3454164
113	0xbf1a2c5e	-0.6022395
114	0x3ecdd7f0	0.4020381
115	0xbee0cb5e	-0.43905157
116	0x3f08d0dc	0.53443694
117	0x3ee31101	0.4434891
118	0xbd0f2e78	-0.034956425
119	0xbe63fa2e	-0.22263405
120	0x40035f7e	2.0527034
121	0xbece8ee1	-0.40343383
122	0xbe72da3f	-0.23716067
123	0xbeba9d33	-0.36448058
124	0xbdfcbc99	-0.1234066
125	0x3e7553d4	0.23957759
126	0x3f2e01c7	0.6797146
127	0xbe8158d4	-0.25263083
128	0xbe509b1f	-0.20371674
129	0xbd404085	-0.04693653
130	0xbf7ff7f3	-0.99987715
131	0x3e1e19b0	0.15439487
132	0xbf15c5e6	-0.58505094
133	0x401ee46b	2.4826915
134	0x3fca41f5	1.5801378
135	0x3eb7704b	0.3582786
136	0x3edf1ac4	0.43575108
137	0xbf6534e5	-0.89533836
138	0x3da281ea	0.079349354
139	0x3e92ba2c	0.28657663
140	0xbff7f784	-1.9372411
141	0x3ff393bc	1.902946
142	0xbe8e420d	-0.27784768
143	0x3ee1e995	0.4412352
144	0xbf261611	-0.6487742
145	0x3ed044f7	0.40677616
146	0x3c69f1ec	0.01427887
147	0x3ea51d0b	0.3224872
148	0x3f0667f3	0.52502364
149	0x3eadb87d	0.33929816
150	0x3eb8d8f3	0.3610302
151	0x3edefd5d	0.43552676
152	0xbde7a1ff	-0.11310195
153	0xbf1a32d3	-0.602338
154	0xbef5faf8	-0.48043036
155	0x4029581e	2.6460032
156	0xbf0075fb	-0.50180024
157	0x3f2736cc	0.6531799
158	0xbee442e8	-0.44582295
159	0x3db00e9a	0.08596535
160	0xbe113e03	-0.14183812
161	0xbfc87e1f	-1.5663489
162	0xc001a47c	-2.0256643
163	0xbe769830	-0.24081492
164	0xbe65ecae	-0.22453567
165	0x3db76da4	0.08956459
166	0xbddb4ac1	-0.107076176
167	0xbdc2cd2d	-0.095117904
168	0x3f841897	1.0320004
169	0x3f87c617	1.0607327
170	0x3dc895af	0.09794175
171	0xbe617e1f	-0.22020768
172	0x3f14a7a5	0.58068305
173	0xbd63424b	-0.055483144
174	0xbea2a380	-0.31765366
175	0xbcb4edc4	-0.022086032
176	0x3cfdbc30	0.030973524
177	0xbd1147d9	-0.03546891
178	0xbeddeacb	-0.43343195
179	0xbf211c8b	-0.6293418
180	0x3e4ecae4	0.20194584
181	0xbe8763d6	-0.26443356
182	0xbf0a23cb	-0.53960866
183	0xc037464f	-2.8636663
184	0xbea1937f	-0.31557843
185	0xbeb81070	-0.3595004
186	0xbe955a41	-0.2917042
187	0xbe3ec31f	-0.1862912
188	0xbe46f7d4	-0.19430476
189	0x4036eb14	2.858098
190	0xbfec2c80	-1.845108
191	0x3e709732	0.23495176
192	0xbdb88149	-0.09009034
193	0xbed122e0	-0.4084692
194	0x3ddbeb8e	0.10738288
195	0xbd1c3d33	-0.0381443
196	0x3d716b50	0.05894023
197	0xbd84fe65	-0.064938344
198	0x3e059b61	0.13047554
199	0xbe80d51f	-0.25162598
200	0xbf6c7d38	-0.9237857
201	0x3eba8732	0.3643127
202	0xbecfcd80	-0.40586472
203	0x3f0ad7fd	0.5423582
204	0xbe29db34	-0.16587526
205	0x3d9b3308	0.07578093
206	0x3e9fbdb3	0.31199417
207	0x3ed3feaf	0.41405246
208	0xbe713144	-0.2355395
209	0x3c71a272	0.014748203
210	0xbf0afb36	-0.5428957
211	0x3e60422b	0.21900241
212	0xbe8d4ce4	-0.27597725
213	0xbd8f6a6b	-0.070027195
214	0x3e0ee26a	0.13953558
215	0xbe6d4ed4	-0.23174602
216	0x3ea0bbdb	0.31393322
217	0xbdbdc54b	-0.09266146
218	0x3f2d47c4	0.6768763
219	0x3d714aa8	0.05890909
220	0x3eb399d8	0.3507831
221	0x3e48d083	0.19610791
222	0xbd99a7bc	-0.07502696
223	0xbea0a69b	-0.3137711
224	0xbeddb85e	-0.43304724
225	0xbe572894	-0.21011573
226	0xbeed486a	-0.4634431
227	0x3def2d11	0.116785176
228	0xbf27824a	-0.6543318
229	0xbbe36f89	-0.0069407863
230	0xbe6bae4b	-0.23015706
231	0x3eb13479	0.34610346
232	0xbe29d9ce	-0.16586992
233	0xbd7c667b	-0.06162117
234	0xbe788e43	-0.24273019
235	0x3f7d5f14	0.989732
236	0xbec68488	-0.38772988
237	0xbec34c03	-0.3814393
238	0xbf2d53e9	-0.6770616
239	0xbea7f202	-0.32801825
240	0x3df8a521	0.12140871
241	0x3db71c03	0.0894089
242	0x3d19dca7	0.037563946
243	0x3e3ad6e0	0.18246031
244	0xbdd5d5a6	-0.10441141

block1.att.score_proj.weight f4 [1, 7]
0	0x3ffdf46d	1.9840218
1	0xbfa2f01c	-1.2729526
2	0x4009d4f5	2.1536229
3	0xc0051340	-2.0793
4	0xbf804280	-1.0020294
5	0x3f5cc9cb	0.8624541
6	0x3f4360ef	0.76319784

layers.0.weight f4 [256, 40]
0	0xbe71534a	-0.23566929
1	0xbe4ec608	-0.2019273
2	0x3dd72d0d	0.1050664
3	0xbe523509	-0.20528044
4	0xbf35f6f7	-0.71079963
5	0xbe78a1f5	-0.24280532
6	0xbf9a3cd6	-1.2049816
7	0xbf3279db	-0.69717187
8	0xbf37b268	-0.717566
9	0x3f95abc3	1.1693043
10	0x3f93becb	1.15426
11	0xbedce248	-0.4314139
12	0xbed6f752	-0.41985565
13	0x3f4ec78b	0.8077323
14	0xbd5aa229	-0.053377304
15	0xbe61d92a	-0.22055498
16	0xbfa3a747	-1.2785424
17	0x3f49195c	0.7855432
18	0xbd946d78	-0.07247442
19	0x3d4f9dfd	0.05068778
20	0xbf8da421	-1.1065713
21	0xbff8de56	-1.9442852
22	0xbf25002d	-0.64453393
23	0xbf73d04f	-0.9523973
24	0xbed63d8b	-0.4184383
25	0x3fa119d1	1.2586004
26	0x3df342a0	0.11877942
27	0xbc9b1405	-0.018930444
28	0x3e3efe69	0.18651737
29	0xbf1798dd	-0.59217626
30	0x3f92db3f	1.1473159
31	0x3e1000c4	0.14062792
32	0x3f903a52	1.1267798
33	0xbf80a09a	-1.0049012
34	0x3e45145b	0.19246046
35	0xc02b2020	-2.6738358
36	0x3f78a598	0.97127676
37	0x3d95efc9	0.07321126
38	0x3e9b39f7	0.3031766
39	0x3e0930d6	0.13397536
40	0x3dd8dcf3	0.10589018
41	0x3f0c12fe	0.5471648
42	0xbe3c3a3f	-0.18381594
43	0x3f67e9d8	0.9059119
44	0xbf9faa95	-1.2473933
45	0xbf1c5bd3	-0.6107761
46	0xbe41a694	-0.18911201
47	0xbe95b5c2	-0.29240233
48	0xbf0666a1	-0.5250035
49	0xbec08707	-0.37603018
50	0x3f0fdf97	0.56200546
51	0xbf0a6c07	-0.54071087
52	0x3f80a24d	1.004953
53	0xbf2ddb7b	-0.67913026
54	0xbee8087e	-0.4531898
55	0x3fbe7614	1.4879785
56	0x3f4da5cc	0.8033111
57	0x3e3fec48	0.18742478
58	0xbe615f1e	-0.2200894
59	0xbd30d9b7	-0.04317638
60	0x3e585979	0.21127881
61	0xbc4663e1	-0.012108774
62	0xbf264b79	-0.6495891
63	0xbe07f6e8	-0.13277781
64	0xbf529e14	-0.8227246
65	0x3f9ddaff	1.2332457
66	0x3f2bfd91	0.67183787
67	0xbfb5d5e2	-1.4205897
68	0x3c99ff53	0.018798506
69	0x3e333907	0.17502223
70	0x3ec250dc	0.37952316
71	0xbf41596e	-0.75527084
72	0x3ea06544	0.3132726
73	0xbf8a0a39	-1.078437
74	0x3f3b5209	0.7317205
75	0x3f03399b	0.51259774
76	0xbd831ab8	-0.064015806
77	0x3f076c66	0.5289978
78	0x3d529e50	0.05142051
79	0x3dfe31dc	0.12411854
80	0xbd856433	-0.06513252
81	0xbfa8ed9f	-1.3197516
82	0xbf972d14	-1.1810632
83	0x3fa6c5d7	1.3029126
84	0xbf3f977b	-0.74840516
85	0xbf854260	-1.0410881
86	0x3e4c4803	0.19949345
87	0xbe45fd01	-0.19334795
88	0x3ee2e0cc	0.4431213
89	0xbecc9038	-0.3995378
90	0x3f83fa4c	1.031076
91	0x3ed5ed0e	0.4178242
92	0x3eee0ddf	0.46494958
93	0x400c617a	2.1934495
94	0x3ebe78f3	0.37201652
95	0xbf166a47	-0.58755916
96	0xc00f77d9	-2.24169
97	0xbfaaf86f	-1.3357066
98	0xbe211ec5	-0.15734394
99	0x3eb07fad	0.3447241
100	0xbeb60f6a	-0.35558635
101	0x3e0794c3	0.13240342
102	0x3e4b165d	0.1983275
103	0x3cfa39c8	0.03054513
104	0xc01121e3	-2.2676933
105	0xbd82d83e	-0.06388901
106	0x3f3bd7b6	0.73376024
107	0xbe00182e	-0.12509224
108	0xbea562e7	-0.3230202
109	0x3f06e350	0.526906
110	0xbf279746	-0.654652
111	0x3e947883	0.28998193
112	0xbf45363b	-0.77035874
113	0xbf186b5f	-0.59538835
114	0x3f569a32	0.83829033
115	0xbde1556a	-0.110026196
116	0x3d74d4e9	0.05977336
117	0x3fbf7fe5	1.4960905
118	0xbccc73c1	-0.02495754
119	0x3dbbe028	0.09173614
120	0xbda92f9e	-0.082610354
121	0xbf42dba0	-0.7611637
122	0x3daa768a	0.08323391
123	0x3f64294e	0.89125526
124	0x3fb09843	1.3796467
125	0xbf64c9eb	-0.893706
126	0x3ec5ae47	0.38609526
127	0xbe59e068	-0.2127701
128	0x3f26a29d	0.6509188
129	0xbf5d322e	-0.86404693
130	0xbef862d8	-0.48512912
131	0x3cd52c2b	0.026022037
132	0xbf528ce3	-0.82246226
133	0xbf9e1976	-1.235152
134	0xbebaf753	-0.36516818
135	0x3e67a08f	0.22619842
136	0xbec69250	-0.38783503
137	0xbf39d147	-0.72584957
138	0xbe6226fa	-0.22085181
139	0xbf6449b7	-0.8917498
140	0xbf7c1f01	-0.9848481
141	0x3f50653d	0.8140448
142	0xbf773d2f	-0.96577734
143	0xbe8cef96	-0.2752654
144	0xbeaf71af	-0.3426642
145	0x3da2dbf5	0.0795211
146	0xbd8fded6	-0.070249245
147	0xbf5f864f	-0.87314314
148	0x3f8d1570	1.1022167
149	0xbeb20106	-0.34766406
150	0xbe9e9e9e	-0.3098039
151	0xbfa2d02e	-1.2719781
152	0x3d14e141	0.03634763
153	0xbfc4de2f	-1.5380305
154	0xbf7d09cb	-0.9884307
155	0x3ec213e9	0.37905815
156	0xbe170170	-0.14746642
157	0xbf4d809e	-0.8027438
158	0xbd12f118	-0.035874456
159	0xbdc80292	-0.09766115
160	0x3d4804ec	0.04883282
161	0xbf90efe5	-1.132321
162	0xbc880642	-0.016604546
163	0xbdf0dc40	-0.11760759
164	0x3fbbd5d3	1.4674629
165	0x3fbf6c7b	1.4954981
166	0x3f8ecef1	1.1156904
167	0x3f28adac	0.6589
168	0xbf638d3e	-0.88887393
169	0x3dd65a25	0.104664125
170	0x3da35988	0.07976061
171	0xbe2e2479	-0.170061
172	0xbf747173	-0.9548561
173	0x3f655992	0.895898
174	0xbf56a63d	-0.8384741
175	0x3e32ccec	0.17460984
176	0x3ef66d3f	0.48130223
177	0x3f214e31	0.63009936
178	0x3fe1a4e9	1.7628452
179	0x3ee1facb	0.44136652
180	0xbe8b7345	-0.2723638
181	0xbf599985	-0.8499988
182	0x3efbfecf	0.4921784
183	0xbf30c315	-0.6904767
184	0xbe569c71	-0.20958115
185	0x3d2e2d7e	0.042523853
186	0xbe8bba86	-0.27290744
187	0x3fdc0449	1.7188808
188	0xbf3649bc	-0.7120626
189	0x3e01bf2b	0.12670581
190	0x3ed99652	0.42497498
191	0x3be1e180	0.006893337
192	0x3f1fb2d5	0.6238225
193	0x3f925c6d	1.1434456
194	0xbeb99fc2	-0.36254698
195	0xbe3fd281	-0.18732645
196	0xbe2927b5	-0.16519053
197	0xbeadefac	-0.33971918
198	0xbdcab152	-0.098971024
199	0xbc3be511	-0.011468188
200	0x3d133867	0.03594246
201	0xbee535e8	-0.4476769
202	0x3f74b0d4	0.9558232
203	0x3f9bffd6	1.218745
204	0xbf18f621	-0.5975056
205	0xbfa871e5	-1.3159758
206	0x3f5478c2	0.8299676
207	0x3ebff04b	0.37488016
208	0x3f0567dd	0.5211161
209	0x3f9cc9ba	1.2249062
210	0x3ff91e8a	1.9462445
211	0xbf97aadc	-1.1849017
212	0xbf1bff77	-0.60936683
213	0x3e7fb643	0.24971871
214	0x3f2a1771	0.6644202
215	0xbde9e586	-0.11420731
216	0x3eccb214	0.39979613
217	0x3fd2a681	1.6457063
218	0x3f331a1c	0.69961715
219	0x3dd5ec5e	0.10445474
220	0x3e952fe9	0.29138115
221	0xbe3c9e70	-0.18419814
222	0xbfc55aab	-1.5418295
223	0xbf1b045c	-0.60553527
224	0xbe87e70e	-0.26543468
225	0x3dc9b031	0.09848059
226	0xbf02a442	-0.5103189
227	0x3f4efe03	0.8085634
228	0xbf2f3f2e	-0.6845578
229	0x3f319e1c	0.6938188
230	0x3ed57189	0.41688183
231	0xbf00093b	-0.50014085
232	0x3f8035bb	1.0016397
233	0xbe436279	-0.19080533
234	0xbf2b0420	-0.6680317
235	0xbe81ee66	-0.25377196
236	0xbe48627c	-0.19568819
237	0x3e81ea7a	0.25374204
238	0x3e28dca8	0.16490424
239	0x3d92ae33	0.07162132
240	0x3db3d817	0.0878145
241	0xbf1ceded	-0.61300546
242	0x3ecdafb2	0.40173107
243	0xbf04ce85	-0.51877624
244	0xbf24c826	-0.643679
245	0xbf61b64f	-0.88168806
246	0xbe979d64	-0.29612267
247	0x3d285115	0.04109295
248	0x3eac851a	0.33695298
249	0xbfcfea39	-1.6243354
250	0x3f49aad6	0.787763
251	0xc028be56	-2.6366172
252	0x3f39c027	0.72558826
253	0xbe78ae47	-0.24285232
254	0x3f77d4b2	0.9680892
255	0x3f527712	0.82212937

layers.0.bias f4 [256]
0	0xbf9a459b	-1.2052492
1	0xbf6c1bab	-0.9222972
2	0xbf6023f1	-0.8755484
3	0xbf5dd581	-0.86653906
4	0xbf9863bd	-1.1905438
5	0xbf0c1fa8	-0.54735804
6	0x3ea8b6c1	0.3295193
7	0xbf82ca3b	-1.0217966
8	0x3f204706	0.62608373
9	0xbe482c42	-0.19548133
10	0xbf4d0445	-0.8008464
11	0xbe7c7707	-0.2465478
12	0xbed9802a	-0.42480594
13	0xbfd8dd14	-1.6942468
14	0xbea3681a	-0.3191536
15	0xbf0f5ba7	-0.55999225
16	0x3f70afab	0.9401805
17	0x3ef4473e	0.47710603
18	0xbe85698e	-0.26057094
19	0xbc6ee9bc	-0.014582094
20	0xbf36b860	-0.71375084
21	0x3e49b2fd	0.19697185
22	0x3d5a71b4	0.053331092
23	0x3ef7e095	0.4841353
24	0x3f1dd8ea	0.6165911
25	0x3da8af99	0.082366176
26	0x3f1e344d	0.61798555
27	0x3eb5de6c	0.35521257
28	0x3f5f9d3b	0.8734929
29	0x3e7fd291	0.24982668
30	0xbe562129	-0.20911087
31	0xbf67efd9	-0.90600353
32	0x3f30e45f	0.69098467
33	0x3e0e1644	0.13875681
34	0xbe93d736	-0.2887513
35	0x3e79d5b3	0.24397926
36	0xbe587296	-0.21137461
37	0x3d08fe47	0.033445623
38	0xbde3f259	-0.111302085
39	0xbd3491e1	-0.044084433
40	0x4002cd2f	2.0437734
41	0xbfb2cd63	-1.3968929
42	0xbf3e7b0c	-0.74406505
43	0xbf16e6be	-0.58945835
44	0xbf076723	-0.5289175
45	0x3ed0b725	0.40764728
46	0xbf13d1a2	-0.5774175
47	0xbf4afb6f	-0.7928991
48	0x3ec33771	0.38128236
49	0xbe56c228	-0.20972502
50	0xbe807994	-0.25092757
51	0xbf499218	-0.78738546
52	0xbec232da	-0.37929422
53	0x3f5bf914	0.8592694
54	0xbf467769	-0.77525955
55	0x3fc670e4	1.5503201
56	0x3d6e75d6	0.058217846
57	0xbf2eb1d5	-0.682401
58	0xbdd78ec9	-0.10525281
59	0xbee519e1	-0.44746307
60	0x3d51c782	0.051215656
61	0x3f0de1c9	0.55422646
62	0xbe64a091	-0.22326876
63	0xbe874699	-0.2642105
64	0xbfc250e7	-1.518094
65	0x3fa149af	1.2600611
66	0x3e6e7e7c	0.23290437
67	0xbda9980e	-0.08280955
68	0xbe9a22ff	-0.30104825
69	0x3f23cc4c	0.6398361
70	0x3da7fde5	0.082027234
71	0xbe30be01	-0.1725998
72	0xbfc35281	-1.5259553
73	0xbeb3d542	-0.3512364
74	0x3f35930f	0.7092752
75	0x3eefdeec	0.46849763
76	0x3e06a8b0	0.13150287
77	0x3ed5440a	0.41653472
78	0x3eccd3b0	0.40005255
79	0xbf045c71	-0.51703554
80	0xbe0db972	-0.13840273
81	0x3e959ba5	0.2922031
82	0xbf87584b	-1.057382
83	0x3c8ebb76	0.017423373
84	0xbea4b28e	-0.32167476
85	0xbef8f4af	-0.4862418
86	0xbd346664	-0.04404296
87	0xbfabed22	-1.3431742
88	0x3ea74633	0.32670745
89	0xbfd29708	-1.6452341
90	0x3e56181a	0.20907632
91	0xbefeaa33	-0.49739227
92	0xbf84339a	-1.0328248
93	0x3f4f7585	0.81038696
94	0xbfaccab9	-1.3499366
95	0xbb0b3f8b	-0.0021247591
96	0xbec67ebd	-0.3876857
97	0xbea6f4d5	-0.32608667
98	0xbeb21925	-0.3478481
99	0xbe15f1c5	-0.14643009
100	0x3ec60cdc	0.38681686
101	0x3cfb699a	0.030690003
102	0x3d9e64af	0.077340476
103	0x3e90bf5f	0.28271005
104	0x3e90e8d7	0.28302643
105	0x3e83b78c	0.25725973
106	0xbf1d53be	-0.61455905
107	0xbed223fa	-0.41043073
108	0xbedb237f	-0.4280052
109	0x3f2de46c	0.6792667
110	0x3d9fb699	0.077984996
111	0x3e882331	0.2658935
112	0x3ec261d2	0.37965256
113	0xbfa5b83f	-1.2946852
114	0xbf399d5d	-0.7250574
115	0xbede9adc	-0.43477523
116	0xbf0f0af4	-0.5587609
117	0xbb2621aa	-0.0025349655
118	0xbef0bf68	-0.4702103
119	0x3dc9b1d3	0.098483704
120	0xbe9b32d1	-0.30312207
121	0xbeedeb03	-0.46468362
122	0x3e9163ec	0.28396547
123	0x3d6c4664	0.057684317
124	0xbf0bf95f	-0.54677385
125	0x3d177393	0.036975455
126	0x3eb2c714	0.3491751
127	0xbe9c401d	-0.30517665
128	0xbe2cbff9	-0.16870107
129	0xbdd448a9	-0.10365421
130	0xbed9a5bd	-0.4250926
131	0x3e59b83a	0.21261683
132	0x3dff31bc	0.12460658
133	0xbea76ec8	-0.32701707
134	0xbee8464e	-0.45366138
135	0xbe1548a9	-0.14578499
136	0x3dcfdfd0	0.10150111
137	0x3cda704b	0.026664874
138	0xbebca389	-0.36843517
139	0x3f818ab4	1.0120454
140	0xbf780ea9	-0.9689737
141	0x3e831966	0.25605315
142	0xbf451c0a	-0.7699591
143	0xbf2f8429	-0.68561035
144	0xbe8145be	-0.25248522
145	0xbf0801a1	-0.53127486
146	0xbf2a3133	-0.6648132
147	0xbf1b3d78	-0.6064067
148	0xbe5abfc4	-0.21362215
149	0xbf16da0c	-0.58926463
150	0xbe8579da	-0.26069528
151	0xbf22915d	-0.63503057
152	0xbe8bfa19	-0.27339247
153	0xbe1c05f1	-0.15236641
154	0xbd3369cb	-0.043802064
155	0xbe85a5c9	-0.26103047
156	0x3dd2db4a	0.10295732
157	0xbf682643	-0.9068338
158	0xbf401a1e	-0.7503985
159	0x3ef8ccf4	0.48593867
160	0xbf478c58	-0.7794852
161	0x3ccc8d0c	0.0249696
162	0xbdb6074f	-0.08888113
163	0xbe301815	-0.17196687
164	0x3f558d7c	0.83419013
165	0x3f5b4425	0.85650855
166	0xbed9eded	-0.42564335
167	0xbf301f37	-0.6879763
168	0xbe8a1e96	-0.2697646
169	0x3e1882ba	0.14893618
170	0x3e95ac22	0.2923289
171	0x3f899128	1.0747423
172	0xbea4551b	-0.3209618
173	0x3f3b369c	0.731302
174	0xbf49374b	-0.78599995
175	0xbefd8ca6	-0.4952137
176	0x3f1b1844	0.605839
177	0xbe69117a	-0.22760573
178	0x3f67da5a	0.90567553
179	0xbf5fa7ae	-0.87365234
180	0xbf8ded83	-1.1088108
181	0xbe085bac	-0.1331622
182	0xbf0c2e60	-0.5475826
183	0xbf4c4396	-0.7979063
184	0x3f9b66a1	1.2140695
185	0x3fd8b478	1.6930075
186	0xbfcde219	-1.6084625
187	0xbf7f8698	-0.9981475
188	0xbe321de1	-0.1739421
189	0xbf097ba3	-0.5370428
190	0xbe977a9f	-0.2958574
191	0xbd80d20b	-0.062900625
192	0xbe856847	-0.2605612
193	0xbf186ef8	-0.59544325
194	0x3eb3d706	0.35124987
195	0xbef90090	-0.48633242
196	0xbefe9099	-0.49719694
197	0xbef09222	-0.4698649
198	0xbf46d291	-0.7766505
199	0xbc0a1fc9	-0.00843043
200	0xbf834916	-1.0256679
201	0xbf2309d1	-0.63686854
202	0xbfdaf317	-1.7105435
203	0x3f585290	0.8450098
204	0xbdd8c834	-0.10585061
205	0x3f64dbca	0.8939787
206	0xbf6f85df	-0.93563646
207	0xbf3dcbcd	-0.741391
208	0xbf24affb	-0.64331025
209	0xbd9aabbd	-0.07552288
210	0x3f4bff43	0.79686373
211	0xbe5cd751	-0.21566512
212	0x3f27866a	0.65439475
213	0xbe36eabe	-0.17862985
214	0x3de0b1f0	0.10971439
215	0x3f3cbeaa	0.7372843
216	0xbf3af90e	-0.7303628
217	0xbe4ff65d	-0.20308824
218	0xbe3670f4	-0.17816526
219	0xbe8eec2f	-0.2791457
220	0x3fbb85d8	1.4650221
221	0xbf8ea722	-1.1144755
222	0x3f6d5ff8	0.9272456
223	0xbee81426	-0.45327872
224	0xbf82c55f	-1.0216483
225	0x3ed9b6e2	0.4252234
226	0xbcbfff99	-0.023437308
227	0xbf5ba689	-0.8580099
228	0xbef163bc	-0.47146404
229	0xbecee643	-0.4041005
230	0xbeb8874f	-0.36040732
231	0xbf44bcd1	-0.7685061
232	0xbf06d162	-0.5266324
233	0xbea1f549	-0.3163245
234	0xbd83d658	-0.06437367
235	0xbef2e970	-0.47443724
236	0xbdb4f230	-0.08835256
237	0x3e1a16ce	0.15047762
238	0x3f6158a3	0.88025874
239	0x3f45243a	0.770084
240	0x3eca52cf	0.39516303
241	0xbeb0bcee	-0.34519142
242	0x3d921747	0.07133346
243	0xbcc6555c	-0.024210624
244	0xbdc8e455	-0.09809176
245	0xbeb1845f	-0.34671304
246	0xbd955777	-0.07292073
247	0x3fc0f84d	1.5075775
248	0xbe32616e	-0.17419979
249	0xbf1d92df	-0.6155223
250	0x3f16e28d	0.5893944
251	0xbf19354b	-0.59846944
252	0x3f6995a2	0.91243947
253	0xbdcc6e1d	-0.0998194
254	0xbda30cf1	-0.07961453
255	0x3ec23c88	0.37936807

layers.2.weight f4 [256, 256]
0	0xbf8d5b33	-1.1043457
1	0xbe542cba	-0.20720187
2	0x3f5b0a1a	0.8556229
3	0x3ecf706c	0.4051546
4	0x3f5c15e2	0.8597089
5	0xbf21c1bf	-0.6318626
6	0xbebce083	-0.3689004
7	0xbec30c92	-0.38095528
8	0xbec3aac2	-0.38216215
9	0x3eb5bbf5	0.35494962
10	0xbda12836	-0.07868998
11	0x3e0bc7fd	0.13650508
12	0xbd8d3e22	-0.068966165
13	0x3d4f2efd	0.05058192
14	0x3f140344	0.5781748
15	0xbefa34d8	-0.48868442
16	0xbe879488	-0.26480508
17	0xbe928a00	-0.2862091
18	0xbeee3838	-0.46527267
19	0x3f0a8daa	0.5412241
20	0x3f822b4b	1.0169462
21	0xbea5a3a1	-0.323514
22	0xbeb65f0f	-0.356194
23	0xbf16cf4e	-0.5891007
24	0x3edde2d3	0.43337116
25	0xbeaf02bd	-0.34181777
26	0x3ec26d46	0.37973994
27	0xbe804ebf	-0.25060079
28	0xbf77d66a	-0.96811545
29	0xbe94f89d	-0.29095927
30	0xbd949cdc	-0.07256481
31	0xbeb4bc31	-0.3529983
32	0x3e3d6ce8	0.18498576
33	0x3d8fd648	0.07023293
34	0xbfc15afb	-1.510589
35	0x3dba843d	0.09107254
36	0x3e800831	0.2500625
37	0x3e54cd63	0.20781474
38	0xbf35c471	-0.7100287
39	0xbdce4a9c	-0.10072824
40	0xc075c3aa	-3.8400674
41	0x3e81f7df	0.25384423
42	0xc0234c09	-2.5515158
43	0x3e6613b2	0.2246845
44	0x3d322cd6	0.04349979
45	0xbe860331	-0.2617431
46	0xbf6417cd	-0.8909882
47	0x3f025c3c	0.5092199
48	0xbeb1d52b	-0.34732947
49	0xbf003d28	-0.5009332
50	0x3f0e553d	0.55598813
51	0x3eb5157d	0.35367957
52	0xbe28f743	-0.16500573
53	0xbf754450	-0.9580736
54	0xbef2ea41	-0.47444347
55	0xbf332bea	-0.6998888
56	0x3ebb204f	0.36548087
57	0x3ee66c21	0.4500437
58	0xbf4779d3	-0.77920264
59	0xbde43a7a	-0.11143966
60	0xbedbdc48	-0.429415
61	0xbe6933ef	-0.22773717
62	0xbf19f5ba	-0.60140574
63	0xbeeb92db	-0.4601048
64	0x3cb2a5bb	0.021807542
65	0xbf9308d8	-1.1487074
66	0x3f353120	0.70778084
67	0xbf9ecca2	-1.2406199
68	0x3e8418de	0.25800222
69	0xbdbfdb22	-0.09367968
70	0xbee041fb	-0.4380034
71	0xbde9419a	-0.11389466
72	0x3ef38dcc	0.4756912
73	0x3fba16fa	1.4538262
74	0xbfada456	-1.3565776
75	0x3f8bd4eb	1.0924352
76	0xbf988ef5	-1.1918627
77	0x3f3534b5	0.7078355
78	0xbf84aad4	-1.0364633
79	0x3e7c219a	0.24622193
80	0xbd984e0f	-0.074367635
81	0x3ee784ca	0.45218498
82	0x3e9549c3	0.29157838
83	0xbf908d52	-1.1293128
84	0xbf0b6683	-0.54453295
85	0xbe10c945	-0.14139278
86	0xbe304e36	-0.17217335
87	0x3eca1329	0.39467743
88	0x3d0ee69a	0.034887888
89	0xbf1cc41c	-0.6123674
90	0xbf01c148	-0.5068555
91	0xbe963801	-0.29339603
92	0xbf2b337c	-0.66875434
93	0x3eb88632	0.36039883
94	0x3f852736	1.0402591
95	0x3e26d6d4	0.16292888
96	0xbe4c4720	-0.19949007
97	0x3f3aafde	0.729246
98	0x3ea6305e	0.32458776
99	0x3e8a76b6	0.27043694
100	0xbeb41e68	-0.35179448
101	0xbf7285c6	-0.9473537
102	0xbf843b5d	-1.0330616
103	0x3e3c063b	0.18361752
104	0x3e8a261a	0.26982194
105	0x3ec80853	0.3906885
106	0xbef8f343	-0.48623094
107	0xbfb186e8	-1.3869295
108	0x3e27e8ee	0.1639745
109	0xbfba08b4	-1.4533906
110	0x3e853606	0.2601778
111	0xbefa5a35	-0.48896948
112	0xbf32d25f	-0.6985225
113	0xbea2d221	-0.3180094
114	0x3eda78ff	0.42670438
115	0x3dcc1abf	0.09966039
116	0x3e5d24ec	0.21596116
117	0xbf8f8844	-1.121346
118	0x3e325414	0.17414886
119	0xbf014412	-0.5049449
120	0xbf15b3d1	-0.58477503
121	0xbeb53cb6	-0.3539788
122	0x3e9418fa	0.28925306
123	0xbf253b75	-0.6454385
124	0x3f3c3166	0.73512876
125	0xbf06e9b5	-0.5270036
126	0xbe354173	-0.17700748
127	0xbedb3c4b	-0.42819437
128	0xbd94d2af	-0.07266747
129	0x3decea9a	0.11568184
130	0xbe8d073b	-0.2754458
131	0x3ecf2e65	0.40465084
132	0xbe830a94	-0.25594008
133	0x3f4f39d7	0.8094763
134	0xbea4373c	-0.3207339
135	0xbf007204	-0.50173974
136	0x3f07f891	0.5311366
137	0x3edc9ee9	0.4308999
138	0xbf0a4e5a	-0.54025805
139	0x3e7641d2	0.24048546
140	0xbe80cc31	-0.25155786
141	0xbef4d720	-0.47820377
142	0x3f3fe9ce	0.7496613
143	0xbe9f37ef	-0.3109736
144	0xbf3eba51	-0.74503046
145	0x3e80f7f5	0.25189176
146	0xbf721f6a	-0.94579184
147	0x3f58ddf2	0.8471366
148	0xbf190323	-0.5977041
149	0x3f08b97f	0.53408045
150	0xbf77625a	-0.9663445
151	0xbf096b41	-0.5367928
152	0xbe8c6b9b	-0.27425846
153	0xbea9d800	-0.33172607
154	0xbe15d681	-0.14632608
155	0xbd971570	-0.07377136
156	0xbe19b2e6	-0.1500965
157	0x3cfee706	0.03111602
158	0x3f1094d7	0.5647711
159	0x3f09bfeb	0.5380847
160	0x3ea8c588	0.32963204
161	0xbf311fc2	-0.69189084
162	0x3eef45ee	0.4673304
163	0xbf1c9dcd	-0.61178285
164	0xbe8ca96e	-0.27473015
165	0x3be64575	0.007027323
166	0xbe88af0d	-0.26696053
167	0xbf1830b4	-0.59449315
168	0x3e4125a2	0.18862012
169	0x3ebff0d0	0.37488413
170	0xbedcff25	-0.4316341
171	0x3f0f49fc	0.55972266
172	0xbf32d6c8	-0.6985898
173	0xbef6ad8c	-0.4817928
174	0xc0880ca9	-4.2515454
175	0xbf883dfe	-1.0643919
176	0xbe8fa28a	-0.28053695
177	0x3e1a808d	0.150881
178	0x3e5e431a	0.21705285
179	0x3e3dd2aa	0.18537393
180	0x3ebd2bcb	0.36947474
181	0xbeb2c13b	-0.34913048
182	0xbef79049	-0.48352268
183	0xbda2b2b2	-0.0794424
184	0x3e881c55	0.26584116
185	0x3f93fe85	1.1562048
186	0xbf9f0bb5	-1.2425448
187	0x3e30bec6	0.17260274
188	0xbe97bb36	-0.29635018
189	0x3eebcace	0.46053165
190	0x3f121e21	0.57077223
191	0xbd803f1b	-0.062620364
192	0x3b9c90c4	0.0047779996
193	0xbe2ace70	-0.16680312
194	0xbf928dd8	-1.1449537
195	0x3f10d155	0.56569415
196	0xbfa50ca0	-1.2894478
197	0x3e865d91	0.2624326
198	0x3f9a9756	1.2077434
199	0xbf91b88c	-1.1384444
200	0x3e93a69a	0.28838044
201	0xc000a7eb	-2.010249
202	0x3ed7574f	0.420588
203	0xbf201d3c	-0.6254461
204	0x3e680ecd	0.22661896
205	0xbe7d7f9c	-0.2475571
206	0xbee32a15	-0.44368044
207	0x3ecade7e	0.39622873
208	0xbf4d1602	-0.80111706
209	0x3e96949c	0.29410255
210	0xbf471fe5	-0.7778304
211	0xbe3c6fe5	-0.1840206
212	0xbd921614	-0.07133117
213	0x3f3380fc	0.7011869
214	0xbefd5b36	-0.4948365
215	0xbe339b31	-0.1753967
216	0xbeb737cb	-0.35784754
217	0x3f1ba0e3	0.6079237
218	0xbdb57d73	-0.08861818
219	0x3f2d93d6	0.67803705
220	0x3f27dd6c	0.6557224
221	0x3f180c72	0.5939399
222	0x3f02dab7	0.5111498
223	0xbe1cf16a	-0.15326467
224	0xbdbe9bea	-0.09307082
225	0x3e1a308e	0.15057585
226	0xbf3f2277	-0.74661964
227	0x3e36a3d9	0.1783594
228	0x3e0d160b	0.1377794
229	0xbf8ba9ea	-1.0911229
230	0x3cc3d6d3	0.023906147
231	0x3f245969	0.6419893
232	0x3f5789be	0.8419455
233	0x3ef4df81	0.4782677
234	0x3e7dbf28	0.24779952
235	0x3cf72393	0.03016833
236	0x3e81ebee	0.25375313
237	0x3ddda3f7	0.108222894
238	0xbc6112aa	-0.01373736
239	0xbf1a3aa1	-0.6024571
240	0x3e87acd1	0.26499036
241	0x3e8851c0	0.2662487
242	0xbf9ab8cc	-1.2087646
243	0x3de58a0c	0.11207971
244	0x3ee0bdae	0.43894714
245	0xbfb28664	-1.3947263
246	0x3fb352e2	1.4009669
247	0xbe146a06	-0.1449357
248	0xbefeb583	-0.49747857
249	0x3e8f1e3c	0.27952754
250	0x3f04b8b2	0.5184432
251	0xbee1e9df	-0.44123742
252	0xbf6d8c5a	-0.92792284
253	0xbfc94d3a	-1.5726693
254	0xbeefc4b4	-0.4682976
255	0xbfb9b447	-1.4508141

layers.2.bias f4 [256]
0	0x3d94ce53	0.07265916
1	0xbe22889e	-0.15872428
2	0x3e90bdb2	0.28269726
3	0xbdbb7929	-0.09153969
4	0xbe88a415	-0.26687685
5	0xbeca970c	-0.39568365
6	0x3f1554a6	0.5833229
7	0xbebeb8dc	-0.37250412
8	0xbde7a297	-0.113103084
9	0x3ec20098	0.37891078
10	0xbb89d983	-0.0042068376
11	0xbdb77245	-0.08957342
12	0xbf0ca3b0	-0.5493727
13	0x3ecd2d9f	0.4007387
14	0xbd9a9a92	-0.07549013
15	0x3f1b5eb4	0.6069138
16	0x3dc7941e	0.09745048
17	0xbedfda11	-0.4372106
18	0xbd3b37a7	-0.04570737
19	0xbde1139f	-0.109900706
20	0x3e8b0856	0.27154797
21	0xbe1912ab	-0.14948528
22	0xbe0be06d	-0.1365983
23	0xbe18b409	-0.14912428
24	0x3d89ee7d	0.06734941
25	0x3e53902d	0.20660467
26	0x3ebb1311	0.36537984
27	0xbe2411f4	-0.16022474
28	0xbd544507	-0.051823642
29	0x3f240665	0.6407226
30	0xbda9f935	-0.082994856
31	0xbd818e89	-0.063260145
32	0x3eddb6a3	0.43303403
33	0x3ea90d86	0.3301813
34	0xbf3fcee9	-0.74925095
35	0x3dff4585	0.12464432
36	0xbd090e10	-0.033460677
37	0x3f0fdd78	0.5619731
38	0x3d13d420	0.03609097
39	0xbcdb8a03	-0.026799208
40	0xbdc24f3d	-0.0948777
41	0xbe2d3daa	-0.16918054
42	0xbdfde8f1	-0.12397946
43	0x3eb54df2	0.3541103
44	0xbdec54ea	-0.115396336
45	0xbddbc58f	-0.10731041
46	0x3982d842	0.00024956657
47	0xbe254c06	-0.16142282
48	0x3e3eb5fd	0.1862411
49	0xbe91e44f	-0.28494498
50	0xbd387654	-0.04503472
51	0xbee23312	-0.4417959
52	0xbe8b5b43	-0.27218065
53	0xbe33e2a7	-0.1756693
54	0xbed6b77a	-0.41936857
55	0xbba0ce0c	-0.004907375
56	0x3e7f9aee	0.24961445
57	0x3d7a4dfc	0.061109528
58	0xbf341e67	-0.7035889
59	0xbd26a8a1	-0.04068816
60	0xbf204622	-0.62607014
61	0xbce69114	-0.02814535
62	0xbf29a024	-0.6625998
63	0xbdd32ce7	-0.10311299
64	0x3e176ba5	0.14787157
65	0x3f31b9a4	0.6942389
66	0x3e388558	0.18019617
67	0xbdf8e444	-0.12152913
68	0x3e823b49	0.25435856
69	0x3e4a83af	0.19776796
70	0xbd0e8690	-0.034796298
71	0xbd886471	-0.06659783
72	0x3e5b729e	0.21430442
73	0x3d460f9f	0.04835474
74	0xbce9a8a1	-0.028522791
75	0x3eca0d4c	0.3946327
76	0x3d74e949	0.05979279
77	0xbe0d400f	-0.13793968
78	0xbd872616	-0.06599061
79	0x3e540a13	0.20706968
80	0x3dd0e5a9	0.10200054
81	0x3c8e6227	0.017380787
82	0xbee5dfbb	-0.44897255
83	0x3ea135e7	0.31486437
84	0x3e8fab1b	0.2806023
85	0xbe139a88	-0.14414418
86	0xbec31a80	-0.38106155
87	0xbe22ff76	-0.15917763
88	0x3da98d41	0.08278895
89	0xbf24b74a	-0.64342177
90	0x3ec802c9	0.39064625
91	0xbda01764	-0.078169614
92	0xbed30e1e	-0.41221708
93	0xbed39095	-0.41321245
94	0xbe9c6870	-0.3054843
95	0x3efa8d70	0.48936033
96	0xbc94948f	-0.018137245
97	0xbdc367a5	-0.09541253
98	0x3eedd5e3	0.46452245
99	0x3d8a34fe	0.06748389
100	0x3e92155a	0.28531915
101	0x3d12db3b	0.035853606
102	0xbcbf83ba	-0.023378242
103	0xbee74e03	-0.45176706
104	0xbd64b3b1	-0.05583543
105	0xbe591f5e	-0.21203372
106	0xbd4d8b8c	-0.05018191
107	0xbda54b07	-0.08070951
108	0xbcbda7b8	-0.023151264
109	0x3f181b51	0.5941668
110	0xbdae3778	-0.085066736
111	0x3ef86b60	0.4851942
112	0x3ec339b5	0.38129964
113	0xbe734e5e	-0.23760363
114	0xbe0d858d	-0.13820477
115	0x3ec2d934	0.38056338
116	0xbea16af4	-0.3152691
117	0xbd7beae0	-0.06150329
118	0xbe05e20f	-0.13074516
119	0xbf7d1232	-0.9885589
120	0x3d1abeff	0.037779804
121	0x3d6ec861	0.058296565
122	0x3de557dd	0.11198399
123	0x3f291d7c	0.66060615
124	0x3eee5cfc	0.46555316
125	0xbe21d4bd	-0.1580381
126	0xbe127fb9	-0.14306535
127	0xbd056864	-0.032570258
128	0xbdc8bf5c	-0.09802124
129	0xbdc59c7b	-0.09648987
130	0x3edc8465	0.4306976
131	0xbd54c55a	-0.05194602
132	0xbe4d08d5	-0.200229
133	0x3e5720f7	0.21008669
134	0x3e97c25f	0.2964048
135	0xbd9a92fe	-0.07547568
136	0xbd96e3d4	-0.073676735
137	0x3f1c38c9	0.6102415
138	0xbd7d6e5d	-0.06187283
139	0x3bcde651	0.0062835594
140	0xbf359c1f	-0.70941347
141	0x3debacc4	0.11507562
142	0xbe0b79a3	-0.1362062
143	0xbe020ff2	-0.12701395
144	0x3e306740	0.17226887
145	0xbf0478de	-0.5174693
146	0xbd58ab0b	-0.052897494
147	0xbd1e1ca4	-0.038601533
148	0xbf3fac0e	-0.7487191
149	0xbf653014	-0.89526486
150	0xbe135efe	-0.14391705
151	0xbec7e4e0	-0.39041805
152	0xbeeab0e8	-0.45838094
153	0x3b8de1aa	0.00432988
154	0xbe556b2e	-0.20841667
155	0xbc6de139	-0.014519029
156	0xbd5fd9d4	-0.054651096
157	0x3e6054ca	0.21907344
158	0xbf01fb51	-0.50774103
159	0x3ecb1f79	0.3967245
160	0xbe416380	-0.18885612
161	0x3e51c60b	0.20485704
162	0x3e6a92a7	0.22907506
163	0x3ebee62d	0.37284985
164	0x3f00d306	0.50321996
165	0xbe0f829f	-0.14014672
166	0xbd96d900	-0.07365608
167	0x3d837b5a	0.06420012
168	0xbe73d8a4	-0.2381311
169	0xbcc00126	-0.023438048
170	0xbea0ea3e	-0.31428713
171	0xbe75a10e	-0.23987219
172	0xbdd20491	-0.10254777
173	0xbd4f8998	-0.05066833
174	0xbe3d88f0	-0.18509269
175	0x3d0b4fc6	0.034011625
176	0xbd8c936a	-0.068640545
177	0xbeee33c3	-0.46523866
178	0xbe45dbaa	-0.19322076
179	0x3f19dca0	0.6010227
180	0x401999ee	2.4000201
181	0x3ed35b03	0.41280374
182	0xbe59d794	-0.21273643
183	0x3f453015	0.7702649
184	0xbd646637	-0.055761542
185	0xbd9e384c	-0.077255815
186	0x3eeec920	0.4663782
187	0xbda615c3	-0.081096195
188	0xbe0724b5	-0.13197596
189	0xbe81bb07	-0.25338003
190	0xbe1ecae0	-0.15507078
191	0xbea2ba17	-0.317826
192	0x3d837feb	0.06420883
193	0xbdc42cd1	-0.095788606
194	0x3ed0aebe	0.40758318
195	0xbd20a3c6	-0.039218687
196	0x3d52b167	0.051438715
197	0x3f008ff6	0.50219667
198	0xbf3f66e7	-0.7476639
199	0xbe5e3284	-0.21698958
200	0xbd932f6d	-0.0718678
201	0xbdb5bc2b	-0.08873781
202	0xbf1a59f8	-0.6029353
203	0xbef428ad	-0.47687283
204	0x3f23b36a	0.6394564
205	0x3ef7cf9c	0.4840058
206	0xbee4548f	-0.44595763
207	0xbdcbf3d8	-0.09958619
208	0xbd797a04	-0.06090738
209	0xbe14a8d9	-0.14517535
210	0x3d8e3605	0.06943897
211	0xbe0a396f	-0.13498472
212	0x3ece4245	0.40284935
213	0x3d5bcdd2	0.053663082
214	0xbe61d5eb	-0.2205426
215	0xbde26eb0	-0.11056268
216	0x3c8f3d1d	0.017485196
217	0xbdf23b29	-0.1182769
218	0xbe0a33e4	-0.13496357
219	0xbde55f69	-0.11199839
220	0xbe236098	-0.15954816
221	0xbde346be	-0.110974774
222	0xbea3b23e	-0.31971925
223	0x3cfe6450	0.031053692
224	0xbed7b092	-0.421269
225	0xbd90c61b	-0.070690356
226	0xbccea1e4	-0.02522368
227	0xbe2f8c06	-0.17143258
228	0xbd26f3b5	-0.04075976
229	0x3f104117	0.5634932
230	0x3d3005e2	0.04297436
231	0x3ebc9d8d	0.36838952
232	0xbf5ffa21	-0.8749104
233	0xbe0ad169	-0.13556446
234	0x3e5391ad	0.2066104
235	0xbe0bbd73	-0.13646488
236	0x3ee84715	0.4536673
237	0x3e1bb19e	0.15204474
238	0xbdd7e648	-0.105419695
239	0xbeeb6c44	-0.45981038
240	0xbd957349	-0.072973795
241	0xbea1049f	-0.31448838
242	0x3e1b3739	0.15157785
243	0x3d80ee61	0.06295467
244	0xbf2eb13e	-0.682392
245	0xbf1939cf	-0.59853834
246	0x3e82781d	0.25482264
247	0xbe8c4648	-0.2739737
248	0xbd91d066	-0.07119827
249	0xbdbb10c8	-0.0913406
250	0x3ec01b7b	0.37520966
251	0xbdc3aed5	-0.09554831
252	0xbe28d677	-0.16488062
253	0x3ec0b882	0.37640768
254	0xbe17cbd1	-0.14823844
255	0x3e8651da	0.26234323
