sac_cr_att_per_large/weights copy 3/qf_target.pt (torch, 314322 bytes, 11 tensors)

block1.att.bias f4 [7]
00000000: 2c65 bfbf 6614 c83e acd1 82be b5c4 583d
00000010: 2aa6 433f f4a5 c83e 1fda d7bd
-1.495275 0.39078063 -0.25550592 0.05292197 0.7642542 0.39189112 -0.1053965

block1.att.tokeys.weight f4 [35, 7]
00000000: 6bd3 aa40 b122 c9be 0ba8 123f 2a3b 03be
00000010: 4119 2e40 ae15 663e 2cc1 81bd 4fbe 6dc0
00000020: db4b 91c0 9fa8 5bbe 7be8 25bf 7917 9bbf
00000030: fc8e 00bf a8c3 9d3b 957c 71bf cf6d afbf
00000040: 92f4 e4be 80cb 9fbe 3c0d 0f40 7514 29bd
00000050: 2a04 d33c 8238 13bf 583e 7abf ac62 d6bd
00000060: d9d1 e83d 3a0e 233d 4b98 453e 9890 29bd
00000070: 6816 02bf 7ddf 263f 2297 a73d 314e 2ebe
00000080: e867 29bf db0e c4bd 2b49 9cbd cd32 88c0
00000090: 2cef da3e 9fc6 b2bf 0730 c03e 98e2 2940
000000a0: 52d2 05bf 2d74 33be ac88 1ebf 5c94 45bd
000000b0: 973a 8e3e e999 143f 46ec 3a40 e79e 0f3c
000000c0: 446e 803e 5528 a8bc 6375 fdbd 34db 183f
000000d0: 4ced 7d3d b36b fc3d bef8 98bd f3b1 a43b
000000e0: e7c7 d4bb fc5e 2fbb 948f 61bc c9e3 abbc
000000f0: 552b 353b a57a 3e3b 9530 b3bb d13a 983d
00000100: 5874 c93b d1af 0abd 1503 45bd 5f16 863f
00000110: eb48 a8be f6eb a13c 4815 1c3f a9c7 3bbe
00000120: 56dd aa3e a50a 22bd 66d1 16be 14c0 2fbf
00000130: 218f 043d 2066 0abd 89bf ff3c 6785 d3bc
00000140: 7fb5 643e 1690 54bf 9fc0 d6be ba22 323d
00000150: bf02 bd3e 9b9c cb3d df8a 803d 225e 4e3e
00000160: ba79 673e 9af7 1c3e de2e 113e 40b9 463e
00000170: e0fb 053e 6219 253e 7ec1 41be 78cd 33bf
00000180: f461 96bf ea07 113e d4d3 a93e 70cd aa3e
00000190: 8b1c 08be 64b4 433b 8117 9540 4b86 28bf
000001a0: 8345 5d3e f07e 28c0 c549 7e3e d364 f5be
000001b0: 32b0 abbe 06d2 06c0 fa46 ddba 153d c93e
000001c0: d03f b2c0 be44 803f 0904 9fbf 71e4 79bd
000001d0: 172c 903f 128b c73e 61c3 17be f775 dd3d
000001e0: 6406 dbc0 64ee 033e fac9 8abf 5e08 cabf
000001f0: cff6 febd 700f c5bd 7dc2 6b3d 0445 b440
00000200: 4e5e 2c3f b1ac 473f 257c 79c0 b503 233f
00000210: 6fa5 81bd 581a 8c40 ad1b 3cc0 db0d 2f3f
00000220: f1b4 81bf 6443 c33f 6b04 e6bd f653 be3d
00000230: b3ba 9940 7e04 83bf ebf8 2a3f d7da 15be
00000240: a8b5 a03f bdf9 503f c5cd 303e 5abc bd3c
00000250: 63ed 593d e686 81be 4406 d2be 4b77 6e40
00000260: 2cb2 633e 4544 48be 87c1 37c0 5ef1 c440
00000270: 0adb f2be c39b a93f 3858 b9bf 3e88 fabd
00000280: ab43 bbbd 90dd bcbf 5b40 c6c0 bc9c 0abf
00000290: 0a59 81bf d250 9d3f 730d 7d3b 4da1 34bb
000002a0: 08be 2fbf 040f 45c0 e9c2 f3ba 58b3 70bf
000002b0: 7f84 c2bf 06ea 3b3e d814 8c3c a278 8440
000002c0: 20c4 83bf 3810 b93f f9dd c1be 1abf 09c0
000002d0: a6ae 543d 958a 63be 2971 d540 c0bb d0bf
000002e0: cb32 8d3f e276 1abf e2fa 3a40 d499 9abe
000002f0: 588d 603e 161d ec40 c533 1240 bb32 c73f
00000300: 1460 eb3e 2666 3840 b7ea 5abe c42f 24bc
00000310: 03ab c63e d4c9 8bbe 01a6 78be d072 ff3d
00000320: ebd2 9e3f 8893 59be 70dc 373e 75d7 d7bf
00000330: 1f9d 87bf b395 acbe 2fff d3bd 79af 8ebf
00000340: e0f1 26be b78f 563e 490b a3bf d2d1 81bf
00000350: 6488 86be 7eb6 0ebe dad8 293f 04bb a43e
00000360: fa1d ba3e a78c d2be 7848 99bc 2455 24be
00000370: 4126 3ebe 1f1b 423d 4df2 83be e508 803d
00000380: 3927 71be e24c 0b3e e22a 38bc c761 7b3e
00000390: 02e3 98be 31e6 e6bc 1d07 b53e 8c14 073d
000003a0: 0175 df3c 592a dc3b 5acd ae3c b3fe 1e3d
000003b0: b572 17bd f5ee 963c 0288 c63f 1ab2 bb3f
000003c0: 792b 9d3e 0f97 5e3d d26c bd3f 41eb 953d
000003d0: bc2c d0be
5.338308 -0.3928428 0.57287663 -0.12815538 2.7202914 0.22469208 -0.06335673 -3.7147405
-4.5405097 -0.21451043 -0.6480786 -1.2116538 -0.50218177 0.004814584 -0.9433072 -1.3705386
-0.44717842 -0.31209946 2.2351828 -0.041279275 0.025758822 -0.575081 -0.9775138 -0.10468039
0.1136815 0.03980849 0.19296376 -0.04139766 -0.5081544 0.65184766 0.08183123 -0.17022015
-0.66174173 -0.09573146 -0.07631143 -4.2562013 0.427606 -1.3966864 0.37536642 2.6544552
-0.5227405 -0.17524786 -0.61927295 -0.04823719 0.27779076 0.5804735 2.920671 0.008765913
0.25084126 -0.020527044 -0.12375905 0.5970948 0.061993882 0.123252295 -0.07469319 0.005026096
-0.006493557 -0.0026759496 -0.013767142 -0.02098264 0.0027644236 0.00290648 -0.005468438 0.07433093
0.0061479025 -0.033859078 -0.048098642 1.0475577 -0.32868132 0.019765835 0.6096997 -0.18337883
0.3337199 -0.039560933 -0.14728317 -0.6865246 0.03236306 -0.0337888 0.03121926 -0.025820447
0.2233486 -0.8303236 -0.41943833 0.04349015 0.36916158 0.099419795 0.062764876 0.20153096
0.22605029 0.15328828 0.14178035 0.19406605 0.13084364 0.16122964 -0.18921468 -0.70235395
-1.1748643 0.14163175 0.33169425 0.3335986 -0.13292138 0.002986216 4.659119 -0.65829915
0.21608548 -2.6327477 0.24832828 -0.47928485 -0.33532864 -2.1065688 -0.0016882115 0.39304414
-5.5702896 1.0020978 -1.2423106 -0.061008874 1.1263455 0.3897329 -0.14820625 0.10813516
-6.84453 0.12883908 -1.0842888 -1.5783803 -0.12449419 -0.09622085 0.057558525 5.6334248
0.673314 0.7799788 -3.8982022 0.6367753 -0.06330382 4.378216 -2.9391892 0.68380517
-1.0133344 1.5254941 -0.112313114 0.09293358 4.8040404 -1.0235746 0.6678607 -0.14634262
1.2555437 0.8163107 0.17265995 0.023161102 0.053204905 -0.25298232 -0.41020405 3.726031
0.22235936 -0.19557293 -2.871187 6.154464 -0.4743274 1.325066 -1.4480047 -0.122330174
-0.09143766 -1.4755116 -6.195356 -0.5414541 -1.0105298 1.2290289 0.0038612753 -0.0027561963
-0.6864934 -3.0790415 -0.0018597516 -0.94023657 -1.5196685 0.18350992 0.017099783 4.1397257
-1.0294228 1.4458075 -0.37864664 -2.152289 0.05192437 -0.22220834 6.6700635 -1.6307297
1.1031126 -0.6033765 2.9215627 -0.30195487 0.21928918 7.3785505 2.2844098 1.5562357
0.4597174 2.8812346 -0.21378599 -0.010021154 0.38802347 -0.2730242 -0.24282075 0.124730706
1.2408117 -0.21247685 0.17955184 -1.6862627 -1.0594825 -0.3370796 -0.10351407 -1.11473
-0.16303205 0.2095326 -1.2737819 -1.0142157 -0.26275933 -0.13936803 0.66346514 0.32173932
0.36350995 -0.41122934 -0.018711314 -0.16048104 -0.1856928 0.047389146 -0.25770798 0.062516965
-0.23550119 0.13603547 -0.011240693 0.24549018 -0.29860693 -0.028185936 0.3535699 0.03297858
0.027277471 0.0067189154 0.021338154 0.03881712 -0.036974628 0.01842449 1.5510256 1.4663727
0.3069723 0.05434328 1.4798834 0.07320262 -0.4065913

block1.att.toqueries.weight f4 [35, 5]
00000000: c946 90bd 218d 29be bb5e 2f3d 80f5 2d3e
00000010: 3f8e af3c 7a27 9b3c 0ca2 dfbe d370 84bd
00000020: 4d12 e13e d1ae 8c3a a004 b2bd 43bc 5fbe
00000030: bd96 433e e115 8e3d aba2 663d bead 563d
00000040: 9e23 bb3d 9f65 cb3e c301 6dbd 7860 6d3d
00000050: 399e 263f 3c01 12bd db3e ab3e 0ba3 d63e
00000060: 049a 993d ad9e 88bd 227a 4d3d 5957 c2bd
00000070: 46ac bcbd ff38 003e b65f 6dbd 8eea 88be
00000080: a366 c93e 2633 19be 6af7 173d fd7e 02be
00000090: ab2d 82be 4e70 723e b2f7 693c 8fc2 72bd
000000a0: ed4d 6b40 ee65 2b3f a0af 633f 89b1 0f41
000000b0: fdcf 743e 76eb 19be cffa adbe 71b7 8dbd
000000c0: 1bbc d4bc bea0 0d3c a056 e3be 3d92 93bd
000000d0: b045 a33d 7a95 773c bfd3 fdbb bc49 fa3e
000000e0: 9bb1 12bf 8749 5b3d 6dd7 7dbc b506 4e3d
000000f0: ccac a6be d94f 903d b2e1 61be c3ed d93c
00000100: 3888 0b3d 29f2 ebbe d614 dc3c bc6f af3c
00000110: 846d 993d f10c 3a3c 2b09 5bbf 2f6a e0bd
00000120: 9d6d 903e 028a 9fbc 7ff0 763d b7dd b13e
00000130: 56d2 b03c 3cbb 4dbe 78aa 6fbd 074e 02bc
00000140: d12f cbbd 3d34 523e ffbe 9fbd 51ff aabd
00000150: 9341 283d b0e8 8d3e f645 33be cf6d a93d
00000160: 4f35 c63d 9e44 b6bb b8ac 1d3e cb05 403e
00000170: bb19 6bbe 5e53 60be 23c9 e5bd 81bc 9abe
00000180: 5c95 8cbe c0f6 3f3e 9ddd 153e 6acc acbc
00000190: 8827 f2be 3cd9 3c3e 0c49 99be 6dc6 c83d
000001a0: 9c22 de3b 8721 00bf 9a44 92be 5ead d33e
000001b0: 3a17 09be 684e 8f3d 04bc 1ebe 05f6 1e3f
000001c0: 85ee 143e faf2 cebd 6c88 853c e3fe 2bbe
000001d0: 6b6b 86be ee86 abbd 2dd9 713e f6ba bb3b
000001e0: fc47 a23e 56a9 1abe 6bb6 8ebd 197a a83d
000001f0: 71c1 9bbc cf24 e6bd cdb5 843e c1fd 473c
00000200: f9b3 3ebe 9bac d6ba e29a f1be 1c8a 08bf
00000210: aea0 1b3f cb72 78be ecad 50bd 9083 613e
00000220: dcb7 873d 4e1b 653e 9bac 37be 0deb 653d
00000230: 2935 a3be 73a2 0abd d917 a7bc 6524 0ebd
00000240: 2ef6 d03a 2ec0 33be d8d0 d53e ff4d 44be
00000250: 1d90 90bd af6a 4c3c 6e26 43be f0e4 3cbb
00000260: e3af 463c f8e6 69bc 93ae 3f3c dd0b 803d
00000270: a562 78bd f9fb f23d f108 9a3c 426d 203d
00000280: 10df 31bf b874 edbd 5240 c83c 96b0 303d
00000290: f183 10bd 05f3 db3d 6e75 d53f 05ea 19c0
000002a0: 6b4d adc0 9a68 773d 2942 e4bd 9476 4f3f
000002b0: 2b7a d83d 5da0 30bd 1595 413d
-0.07044751 -0.16557743 0.04281495 0.16988182 0.021430133 0.018939722 -0.4367832 -0.06466832
0.43959275 0.0010733252 -0.086922884 -0.2184916 0.19100471 0.06937767 0.056307476 0.052411787
0.09137653 0.39725968 -0.05786301 0.057953328 0.6508518 -0.03564571 0.33446392 0.41921267
0.07500079 -0.0667089 0.050165303 -0.094893165 -0.09212546 0.12521742 -0.057952605 -0.2674145
0.39336118 -0.14960918 0.037101187 -0.12743755 -0.25425467 0.23675653 0.014280247 -0.059267577
3.6766312 0.6695241 0.8893986 8.980844 0.23907466 -0.15031227 -0.33980414 -0.06919754
-0.025968602 0.008644281 -0.44402027 -0.07205627 0.07972276 0.015111322 -0.0077461894 0.4888438
-0.57302254 0.053536918 -0.015493256 0.050299365 -0.3255371 0.0704648 -0.22058752 0.026602631
0.034065455 -0.4608319 0.026865404 0.021415584 0.074915916 0.0113556245 -0.85560864 -0.10957753
0.28208628 -0.019474987 0.06028795 0.34739468 0.021584671 -0.20090955 -0.05851218 -0.0079531735
-0.0992123 0.2052774 -0.078001015 -0.08349479 0.04107816 0.2771659 -0.17507157 0.082728975
0.096781366 -0.005562379 0.15397918 0.1875221 -0.22959034 -0.21906802 -0.112200044 -0.30221942
-0.27457702 0.18746471 0.1463532 -0.021093566 -0.47295785 0.18442243 -0.29938543 0.09803472
0.006779028 -0.5005116 -0.28567964 0.41343206 -0.13387766 0.06997377 -0.1550141 0.62094146
0.14544113 -0.10104938 0.016300403 -0.1679645 -0.26253828 -0.08375345 0.23618002 0.0057290746
0.31695545 -0.15103659 -0.06968387 0.08226413 -0.019013138 -0.112374894 0.25919953 0.012206496
-0.18623342 -0.0016378345 -0.4718848 -0.5333574 0.6079205 -0.2426254 -0.050947115 0.22022843
0.06626865 0.22373697 -0.17936938 0.056132365 -0.31876495 -0.03384633 -0.020397114 -0.034702677
0.0015942508 -0.1755378 0.41760898 -0.19170378 -0.070587374 0.012476607 -0.19057629 -0.002882298
0.012126896 -0.014276259 0.011699337 0.06252263 -0.06064095 0.11864466 0.018803092 0.039166696
-0.6948099 -0.11594528 0.024444733 0.043137155 -0.03528208 0.10739712 1.6676462 -2.4049084
-5.4157004 0.06040249 -0.111454315 0.8104031 0.10570177 -0.043121684 0.047261316

block1.att.tovalues.weight f4 [35, 7]
00000000: 7896 4eb9 6dd3 d73b 13c9 b33b 66d2 d13b
00000010: 495c a03b 2e00 23bb 1e60 76bb e4de 1cbf
00000020: 2313 d0bd 4ade 27bf 1f0f eabc 18c2 12bd
00000030: e14c e1be fa5d 5fbd d8c7 59bf 90d7 bdbe
00000040: db98 09be 26d3 3cbe 37c6 1abd 970d 9b3d
00000050: 8771 253f 5765 a03f 77f4 fabe c3e1 633e
00000060: 6dcb f13e 78b9 7b3e 2cf0 48be 098d 103e
00000070: 8bc8 34be 5c6a 0c40 d8e4 1c3d 5e4a cc3e
00000080: eabe cf3d 6a57 a3bd 74fd 383e 695a 41bf
00000090: ba5c a8be 4699 9b3d 7190 94bc 7868 8c3f
000000a0: fdad 15bf 1d31 84bd 2526 f3bf 9d48 efbe
000000b0: 1f4c acbe f3b4 883e 725d 9abe 8a08 853e
000000c0: 8553 2cbe ab27 403e 3368 553e 71e0 f83d
000000d0: 23d9 20bd 1302 a83f 5de3 0d3e df22 433e
000000e0: e7cf d6bd 6a28 f23e da3a c1be b883 f73d
000000f0: 377e ec3e 6f2f 28bf 7adf fdbe 68d5 2f3e
00000100: e77a 1bbf e267 8fbe bb56 d1be 1d1a e93e
00000110: 1578 f9be 9670 b0bd 6622 803f 2613 30be
00000120: b409 863d 30a7 d73e b854 f03e 8d7a 9bbd
00000130: 6e33 dbbd b1f6 9abe 6ba6 59be 20d9 70bb
00000140: 099f 083c d8e7 6dbf 27e5 133f f201 56bf
00000150: 968c 3bbf 464c 27be 4606 c0be 8506 b33e
00000160: d637 75bf f15d 053e 34e5 023f 5acc 42be
00000170: 3dd4 44be bc8e 0c3e f983 ec3d 71b7 a73f
00000180: 6b8a 1ebf a87e 6ebe 7aaf c6bf f5bf 423e
00000190: 11c8 803e b308 abbe afb0 80bf 1384 2b3e
000001a0: e566 883d 88bb 743e 1534 6340 d9aa 533e
000001b0: 4376 073f 832f 1d3f 1c6b 69be 0594 8abe
000001c0: 5765 ac3f 5d66 1abf df34 ce3e 32db debe
000001d0: 5789 083f 3c32 e23e 4740 0fbd ee17 53be
000001e0: 5a29 0340 049f d1be 26b2 75be 31e0 b9be
000001f0: 76a1 f0bd b609 6e3e 639e 2c3f c5ce 82be
00000200: 3938 50be e5a7 30bd a1cf 7fbf 51ea 1e3e
00000210: 1cf8 14bf a098 1e40 9ed4 c93f 528d b73e
00000220: 29e2 df3e e54e 65bf 4b94 a23d 09e1 913e
00000230: 395d f8bf 904d f33f cd52 8dbe 569e e03e
00000240: 3da2 25bf a485 d13e 7bbc d83b b167 9e3e
00000250: ecd0 073f 2b65 ab3e d781 bb3e 469f df3e
00000260: f6ff f2bd 37b5 1abf ca4f fcbe 2b86 2940
00000270: 7daf fcbe 8d15 273f 6760 e4be 310b b23d
00000280: a133 14be c13f c8bf 2f42 01c0 6a17 76be
00000290: ac69 6cbe cfef bc3d 1bf3 d9bd dd72 d3bd
000002a0: deaf 833f 3c4e 873f efe5 c93d 6084 60be
000002b0: aeda 143f 3a29 5bbd d534 a2be f41f dbbc
000002c0: 5984 cb3c 46aa 06bd 5c4a dcbe 1003 21bf
000002d0: 8c43 503e 7bb4 83be 156f 0cbf a0c3 36c0
000002e0: 92d0 9fbe 8fdf babe d429 95be b134 3ebe
000002f0: 61b0 4dbe 3e0a 3740 0cc0 ebbf b80a 6e3e
00000300: 39dd bdbd 34e9 d0be 01ee da3d 38a3 1fbd
00000310: 0994 6b3d 1236 82bd fb00 073e 7aa6 80be
00000320: 6d78 6cbf dad0 b93e e282 d0be bd1a 093f
00000330: 8472 2dbe 1e98 943d 61a0 a03e 92b6 d43e
00000340: d84b 6fbe ed00 083c 6798 06bf 5bfc 673e
00000350: 0c2d 8dbe 0a15 97bd d4e5 113e 85ec 67be
00000360: 3f46 a33e 0ccd d0bd 2055 303f b2aa 553d
00000370: bd48 b13e fa3d 4c3e a847 92bd 3f0a a0be
00000380: 9f22 dfbe adb4 52be 00da eebe 7980 f73d
00000390: e60e 27bf f1ce 0abc 121b 74be f1ff b03e
000003a0: 1951 2abe ed45 7bbd b8a6 79be 6118 7d3f
000003b0: 3b61 c6be ca3b c4be ef03 2ebf 7760 a2be
000003c0: 59ec fb3d 348c 963d 209b 1b3d f94f 413e
000003d0: 7aea fbbd
-0.00019701745 0.006586483 0.0054866164 0.0064032553 0.0048938137 -0.0024871933 -0.0037593911 -0.61277604
-0.101599 -0.6557356 -0.028571663 -0.035829633 -0.44003966 -0.054532982 -0.8507056 -0.37078524
-0.13437216 -0.18439922 -0.03778669 0.075709514 0.64626354 1.2530926 -0.49014637 0.2225409
0.47225514 0.2458247 -0.19622868 0.141163 -0.17654626 2.1939917 0.03830418 0.39900488
0.10143836 -0.07975657 0.18065435 -0.7552858 -0.32883245 0.07597594 -0.018135281 1.0969381
-0.5846861 -0.0645468 -1.8996016 -0.46735087 -0.33651826 0.26700553 -0.30149418 0.25983077
-0.16828735 0.18765132 0.2084053 0.12152184 -0.039269578 1.3125633 0.13856263 0.19056271
-0.10488873 0.47296458 -0.37740213 0.1208567 0.46190044 -0.6569738 -0.49584562 0.17171252
-0.6073441 -0.28008944 -0.40886483 0.45527735 -0.48724428 -0.08615224 1.0010498 -0.17194805
0.065448195 0.4211974 0.46939635 -0.07591734 -0.10703169 -0.30266336 -0.2125489 -0.003675051
0.008338698 -0.9293189 0.57771534 -0.8359672 -0.7326139 -0.1633769 -0.37504786 0.34965912
-0.95788324 0.13024117 0.51130986 -0.19023266 -0.19221587 0.13726324 0.11548609 1.3102857
-0.6192996 -0.23290503 -1.5522301 0.19018538 0.2515264 -0.33405074 -1.005392 0.16749601
0.066602506 0.23899662 3.5500538 0.20670642 0.5291483 0.6140062 -0.22794765 -0.27066055
1.3468426 -0.60312444 0.40274712 -0.43526608 0.53334564 0.4417895 -0.03497341 -0.20614597
2.049399 -0.40941632 -0.2399374 -0.36303857 -0.11749546 0.23245892 0.6742918 -0.25548378
-0.20333947 -0.043128867 -0.9992619 0.15519072 -0.58191085 2.4780655 1.5768011 0.35850006
0.43727234 -0.8957351 0.07938441 0.28492 -1.9403449 1.9008045 -0.27602234 0.438708
-0.6470068 0.40922272 0.0066142655 0.30938485 0.53053164 0.33475623 0.36622497 0.43676203
-0.11865227 -0.6043276 -0.49279624 2.648814 -0.49352637 0.6526726 -0.446048 0.08693541
-0.1447282 -1.5644456 -2.0196645 -0.2403237 -0.23087186 0.09225427 -0.10642072 -0.10324643
1.0288045 1.057075 0.098583095 -0.21925497 0.5814618 -0.053506114 -0.31680933 -0.026748635
0.024843382 -0.03287723 -0.43025482 -0.628953 0.20338267 -0.25723633 -0.54857 -2.85569
-0.31213814 -0.36498687 -0.29133475 -0.18574788 -0.20086814 2.8600001 -1.8417983 0.23246276
-0.092707105 -0.4080292 0.10689927 -0.038974017 0.057514224 -0.06357969 0.13183968 -0.25127012
-0.92371255 0.36292154 -0.40724856 0.53556424 -0.16938215 0.072555766 0.3137236 0.4154554
-0.23368776 0.008301002 -0.525763 0.2265486 -0.2757343 -0.0737706 0.14247829 -0.22648819
0.3188953 -0.101953596 0.6887989 0.05216474 0.34625807 0.19945517 -0.071425736 -0.31257817
-0.435811 -0.20576735 -0.46650696 0.12085051 -0.6525711 -0.00847219 -0.23838452 0.34570268
-0.16632499 -0.061345983 -0.24380004 0.98865324 -0.38746056 -0.38326865 -0.6797475 -0.31714222
0.12300939 0.073509604 0.037989736 0.18878163 -0.12300582

block1.att.score_proj.weight f4 [1, 7]
00000000: e27a fe3f f665 a2bf 74e6 0940 4ceb 04c0
00000010: c12f 80bf 0780 5d3f 8f50 433f
1.9881251 -1.2687366 2.1546907 -2.0768614 -1.0014573 0.8652348 0.762948

layers.0.weight f4 [256, 40]
00000000: 21bd 80be ad8a 42be 99f8 113e 05fa 44be
00000010: 480c 3bbf e373 60be e06c 9abf ae08 32bf
00000020: 9c37 3ebf 964f 983f 062f 903f 4623 eabe
00000030: 10b1 c9be 85cc 4f3f e364 6ebd c99d 73be
00000040: 70eb a2bf c14d 4b3f 101d d6bd 24a7 4e3d
00000050: d045 91bf 89aa fcbf 0503 29bf ace3 70bf
00000060: b9a2 dcbe 54ea 9f3f 8fa3 fb3d 10c4 d7bc
00000070: 1fb4 263e 1f31 15bf 83aa 963f f8a3 e03d
00000080: 497c 8f3f 4c4b 80bf 8751 3f3e da66 2ac0
00000090: da63 763f 7403 583d 2f60 9a3e f36a 0a3e
000000a0: d6ea be3d 6f96 073f b4ca 30be cc1e 653f
000000b0: 0a83 a0bf 3aaa 1bbf 5ac4 56be be7a 95be
000000c0: 83d4 07bf 852a cdbe 34a4 073f 4c0b 07bf
000000d0: 4386 7e3f 2132 2ebf cea2 e4be 2966 be3f
000000e0: 9038 4f3f e4e3 363e 7440 63be 0ea3 37bd
000000f0: 6060 4d3e d61b 7c3c 0001 28bf 3d62 0abe
00000100: 1b16 50bf 1f52 9e3f 2628 2a3f 8f5c b6bf
00000110: e27c d63c f83e 1b3e 8025 c53e dc26 48bf
00000120: 4e31 953e 4d1e 89bf a53a 3b3f 3492 003f
00000130: 2104 9cbd 84ca 073f 0983 673d 40df 113e
00000140: d86b e0bd aa21 a6bf ddea 94bf 7af1 a63f
00000150: 6ae3 3abf 205d 8abf b64f 543e bd29 48be
00000160: 3f41 da3e 6870 cabe 0b7e 833f 1632 d03e
00000170: d3fd f43e 85f1 0a40 b085 bf3e 89aa 1cbf
00000180: 6f06 11c0 48e8 a9bf 2cef 18be 2cd7 ab3e
00000190: a481 aabe 6eb0 dd3d 63fd 553e c9f5 dc3c
000001a0: 20af 11c0 b0df 77bd 9db3 3b3f ef81 07be
000001b0: dda7 a5be 7ef6 043f e87f 22bf bb35 913e
000001c0: 42d4 3ebf 8921 1ebf 13b3 553f d379 e3bd
000001d0: ae56 403d 0fc0 be3f 9e36 303c c444 eb3d
000001e0: 1e68 a2bd 65b9 44bf 7dfe a33d ca4e 603f
000001f0: 9694 b13f fb70 60bf 00ce c73e f315 59be
00000200: d325 273f 8a03 5bbf ffe2 fabe 29b8 953c
00000210: 956a 54bf 3702 9abf 91a8 b8be ff3b 703e
00000220: 7c16 cabe 9219 37bf 0427 66be b933 66bf
00000230: 131c 79bf 6b60 513f 08b4 76bf e735 8dbe
00000240: 6fa4 acbe 3693 9f3d beaa a1bd 53dd 65bf
00000250: e86c 8d3f 6fa4 b0be 9f15 a0be 3449 a2bf
00000260: 2600 083d dafd c3bf 3465 7ebf d9e1 bf3e
00000270: beeb 0ebe 416c 4dbf 9d6f 17bc 0502 93bd
00000280: 113e 353d 45a2 8fbf b30a d8bc 1733 00be
00000290: 0bd0 bb3f d851 bd3f 02ee 903f 7cb5 293f
000002a0: 1e22 62bf da9e de3d 4eb3 993d 594c 27be
000002b0: 0cbc 70bf ed95 633f fa35 57bf 7309 343e
000002c0: fd04 fb3e 0b5b 223f 0533 e13f f6b8 da3e
000002d0: 3d85 86be 36df 57bf b687 003f 404d 31bf
000002e0: 4fc3 55be db4c 083d c847 8dbe d2f4 dc3f
000002f0: 0fdd 38bf 0203 093e 46e1 df3e 6356 db3b
00000300: c40e 243f cc77 923f 2784 b5be 5e42 3abe
00000310: 0a70 0bbe c95b abbe 738f c2bd 7643 dbbc
00000320: c6aa a7bc 065a debe f302 763f bc3f 9e3f
00000330: ef4c 13bf 3ae7 a7bf 9dd1 563f a775 c83e
00000340: 0331 053f b18f 9d3f afae fd3f 5a44 99bf
00000350: 08f7 1cbf 109e 7e3e ad58 253f 95f5 acbd
00000360: fcd3 d23e 3e73 d23f 42ae 2d3f d8c3 cb3d
00000370: 3b4f 9a3e c8f4 4fbe 7e5b c3bf c159 13bf
00000380: 12af 86be c3bd 9d3d 7fca fcbe 99b9 4a3f
00000390: b1d9 31bf fffe 383f cedf c93e 841b ffbe
000003a0: 9964 803f be42 36be 49cc 30bf 84bf 76be
000003b0: 9042 49be 925d 6e3e d192 2b3e a4be 8c3d
000003c0: 48ed 053c 53d4 1ebf 4727 c03e 18d9 06bf
000003d0: 79ce 2cbf eae8 64bf d0bb a3be 26dd 233d
000003e0: e615 b63e 410f cbbf 1de7 473f 8bac 27c0
000003f0: 9c89 353f 72a1 78be 06cb 773f 45cd 523f
-0.25144294 -0.18998213 0.14254989 -0.19236 -0.73065615 -0.21919207 -1.2064476 -0.69544494
-0.74303603 1.1899288 1.126435 -0.45730036 -0.393929 0.8117145 -0.05820168 -0.23790659
-1.27281 0.7941552 -0.10454762 0.050452366 -1.134943 -1.9739543 -0.6602023 -0.940974
-0.43092898 1.2493386 0.12287056 -0.026338607 0.16279648 -0.5827808 1.1770786 0.109687746
1.1209804 -1.0022979 0.18683444 -2.6625276 0.9624611 0.05273767 0.30151507 0.1351736
0.09322135 0.5296392 -0.17264825 0.8950012 -1.253999 -0.6080662 -0.2097334 -0.29195207
-0.5305864 -0.40071502 0.5298493 -0.5275161 0.9942362 -0.6804524 -0.4465546 1.4874927
0.8094568 0.17860371 -0.22192556 -0.044833235 0.20056295 0.015387496 -0.65626526 -0.13514037
-0.8128373 1.2368811 0.6646751 -1.4246997 0.026182596 0.1516074 0.38505173 -0.78184295
0.2913918 -1.0712372 0.7313636 0.5022309 -0.07617975 0.5304339 0.05652145 0.1424532
-0.109580696 -1.2979023 -1.1634175 1.3042443 -0.73003256 -1.080967 0.20733532 -0.19547172
0.42627904 -0.39538884 1.027284 0.40663213 0.47849903 2.1709912 0.37406683 -0.61197716
-2.2660177 -1.3274012 -0.14934987 0.335626 -0.33302033 0.10824667 0.2089744 0.026972668
-2.2763138 -0.06051606 0.73320943 -0.1323316 -0.32354632 0.5193862 -0.6347642 0.28361306
-0.7454263 -0.6176992 0.8347637 -0.111072205 0.046957664 1.4902362 0.010755209 0.114877254
-0.07930015 -0.7684539 0.08007524 0.8762022 1.387347 -0.87672395 0.39024353 -0.21199779
0.6529209 -0.85552275 -0.4900131 0.018276291 -0.8297513 -1.2031926 -0.36066106 0.23460387
-0.3947028 -0.7152339 -0.22475821 -0.8992267 -0.9730846 0.8178775 -0.96368456 -0.27580187
-0.33719203 0.0779175 -0.078938946 -0.8979084 1.104886 -0.34500453 -0.31266496 -1.267859
0.033203267 -1.5311844 -0.99373174 0.37476996 -0.13957116 -0.8024331 -0.009242919 -0.071781196
0.044248644 -1.1221396 -0.02637229 -0.12519489 1.4672865 1.4790602 1.1322634 0.6629255
-0.8833331 0.10870142 0.07504903 -0.16337718 -0.94036937 0.88900644 -0.84066737 0.1758173
0.49027243 0.6342017 1.7593695 0.4271924 -0.26273528 -0.8432497 0.5020708 -0.692585
-0.20875286 0.03327642 -0.27593827 1.7262213 -0.7221231 0.13380054 0.43726557 0.0066936477
0.6408503 1.1442809 -0.35452387 -0.1818938 -0.13616958 -0.33468464 -0.09500017 -0.026765566
-0.020467173 -0.43428057 0.9609825 1.23632 -0.57539266 -1.311744 0.83913594 0.39152262
0.5202791 1.2309476 1.9818934 -1.1973984 -0.6131444 0.24864984 0.64588434 -0.084452786
0.41177356 1.6441419 0.6784402 0.099494636 0.30138573 -0.2030822 -1.5262296 -0.5755883
-0.26305443 0.0770221 -0.49373242 0.7918945 -0.69472796 0.72264093 0.39428562 -0.4982568
1.00307 -0.17798898 -0.69061714 -0.24096495 -0.19654298 0.23277882 0.16755225 0.06872299
0.008174248 -0.6204273 0.37529966 -0.5267501 -0.6750255 -0.894179 -0.31979227 0.040005825
0.35563582 -1.586403 0.78087026 -2.6199062 0.709131 -0.24280336 0.96794164 0.82344466

layers.0.bias f4 [256]
00000000: 8e11 99bf 19cb 6bbf 55e5 60bf 6bb8 5dbf
00000010: a595 97bf 0730 07bf a180 a73e 2a16 82bf
00000020: 3aa3 1f3f 82e0 46be eea9 4bbf 8632 75be
00000030: e0ce d6be d6a6 d7bf 078f 9dbe 3c4f 0dbf
00000040: c6d3 6f3f b13c f13e 78d4 83be 92fd 7abc
00000050: 19af 36bf ffe7 573e 7094 643d c67f fa3e
00000060: 1c4f 1d3f 22bd bf3d 8e39 1f3f ff04 b73e
00000070: 4a79 5f3f 324e 813e 83f8 53be 2d72 66bf
00000080: 8828 313f 3287 043e cdb2 90be d26b 753e
00000090: 2bf7 53be 2efe 2a3d 3df7 dfbd 179a f8bc
000000a0: 24a8 0240 7283 b2bf 0012 40bf 6121 17bf
000000b0: 1485 08bf 34d7 d03e 8fb5 12bf 5383 4cbf
000000c0: d351 c53e 0785 5abe 5604 7cbe 39ef 4bbf
000000d0: f2dc c3be 9cb2 5d3f a363 44bf 6a75 c63f
000000e0: fb5f 3e3d 2c8a 30bf 9af4 d4bd 7aa9 e6be
000000f0: 06aa 453d e6b0 0c3f 3dfa 6dbe 90b0 88be
00000100: 4000 c2bf 15e0 a03f 9f87 783e 0a95 9bbd
00000110: f59d 95be 3c63 233f 11be a33d c6e2 3cbe
00000120: 0129 c3bf 2e7b b2be 8b07 333f 6074 e93e
00000130: 2cbc 103e 6640 d93e ccfe c53e d273 09bf
00000140: 7d73 0cbe 6e3c 953e a66c 88bf 8ef4 c938
00000150: 382c a8be 5efb f3be b48b 09bd 2513 acbf
00000160: 6411 a73e 54c2 d2bf 18c4 663e 78da fbbe
00000170: aea9 84bf 2ec1 4e3f c2e9 a9bf b20b 88ba
00000180: b306 c7be 595f 9fbe 8a4c b0be 69c6 1ebe
00000190: 027d c43e 218c 3b3d 4acf 933d 58dd 8e3e
000001a0: ab2f 913e 03e5 853e dac8 1fbf 7cb1 cabe
000001b0: 55b2 d9be 0bfa 283f 6d06 953d 6009 883e
000001c0: 484f c53e 3de8 a5bf 75bd 3cbf d65b e1be
000001d0: e20a 0ebf 1640 6dbb c687 efbe 2a3e ca3d
000001e0: 0d72 98be ab0b f2be 2811 8c3e bf7d 613d
000001f0: 08e1 09bf a355 1f3d fdbb b73e c5bd 99be
00000200: 3587 32be a10e d2bd 5ccb dcbe 279a 5d3e
00000210: 15fe 023e 9ad0 a6be 0996 eabe bcbc 1ebe
00000220: 7a38 e23d 5686 bd3c b4dd babe 5c77 823f
00000230: 6e83 7abf 9c1b 823e df96 40bf e702 33bf
00000240: 12cb 80be c12e 0abf d9bb 26bf dd2c 1ebf
00000250: a184 64be 24e0 16bf 6b9b 79be 8111 22bf
00000260: 3828 8abe 16e8 1cbe efb2 40bd 6d6e 83be
00000270: 4c91 db3d 6f21 66bf 44a2 3dbf 64e0 f53e
00000280: 8e64 45bf 1e06 cc3c 3fac d2bd a3ce 2bbe
00000290: 15f6 553f fc2d 5b3f f97a dfbe 9c87 30bf
000002a0: 2c1e 8bbe 80e2 113e a9bc 9b3e cc80 893f
000002b0: d53c a4be 5705 3b3f 5852 4dbf d39c 01bf
000002c0: 7bfb 193f 7666 65be f204 683f c61c 5fbf
000002d0: fdb3 8dbf f919 1bbe 636c 0abf 5d76 4abf
000002e0: df80 9a3f 0336 d93f 033e ccbf 403b 80bf
000002f0: 4856 35be b71a 09bf 735e 97be 24b4 8cbd
00000300: 99e5 89be 7f11 16bf 2665 b13e 152b f9be
00000310: 34cc f1be 55b8 f1be 4114 46bf a78c 0fbc
00000320: a696 83bf 58f5 23bf 3c0a dabf ce0c 573f
00000330: b928 d6bd 2358 653f b090 70bf 6ff4 3ebf
00000340: 1942 24bf c44b a5bd 884f 4c3f d860 69be
00000350: 8038 283f d4ad 2fbe 2899 e03d e5b4 3e3f
00000360: 3f60 3cbf 06e0 4bbe d367 32be 890a 90be
00000370: 18db ba3f 1d39 8dbf 3b34 6c3f b6cc e8be
00000380: c07a 81bf d092 dd3e 43ea c3bc 0f23 5bbf
00000390: 9a36 ecbe 981d cfbe 7ec0 b8be 7da1 45bf
000003a0: 7d40 06bf 2e83 a7be d807 84bd 5ded f0be
000003b0: ad6c aebd ef7e 133e 333c 623f 59f7 453f
000003c0: 27af c73e 12ca b5be 9bcd 8a3d 35f7 aebc
000003d0: 393e d8bd d94d adbe b10d b2bd ad41 c13f
000003e0: 2726 43be 4045 1fbf 6060 173f 0813 1abf
000003f0: ab5e 6a3f 26eb b9bd e283 a4bd 4e92 be3e
-1.1958482 -0.9210678 -0.8784993 -0.86609524 -1.1842543 -0.5280766 0.32715324 -1.0163014
0.6235844 -0.1942158 -0.7955617 -0.23945054 -0.41954708 -1.6847789 -0.30773184 -0.5519903
0.93682516 0.47116616 -0.25748038 -0.015319245 -0.7136093 0.21084593 0.055805624 0.48925608
0.61448836 0.09362246 0.62197196 0.35746 0.8729445 0.2525497 -0.20700268 -0.9001797
0.6920247 0.12942198 -0.28261414 0.23966911 -0.20699756 0.04174631 -0.10935829 -0.030346913
2.0415125 -1.3946364 -0.75027466 -0.5903531 -0.5332806 0.40789187 -0.57308286 -0.79887885
0.3853899 -0.21339808 -0.24611029 -0.796619 -0.38254505 0.8660066 -0.76714534 1.5504582
0.046478253 -0.68960834 -0.103982165 -0.45051175 0.04825785 0.54957426 -0.2323999 -0.26697206
-1.5156326 1.2568384 0.24270485 -0.07596786 -0.29222074 0.63823295 0.07995237 -0.18445882
-1.5246888 -0.34859604 0.69933385 0.455966 0.14134282 0.42431945 0.38670957 -0.5369235
-0.1371593 0.29147667 -1.0658157 9.629979e-05 -0.32846236 -0.47652715 -0.033580497 -1.3443342
0.32630455 -1.6465554 0.22535741 -0.49190116 -1.0364282 0.8076352 -1.3274462 -0.0010379462
-0.388723 -0.31127432 -0.34433395 -0.15505375 0.38376623 0.045787934 0.072172716 0.27903247
0.2835668 0.26151285 -0.6241585 -0.39588535 -0.4251887 0.66006535 0.07276616 0.26569653
0.3853705 -1.2961498 -0.7372659 -0.44015378 -0.55485356 -0.0036201528 -0.46783274 0.09875138
-0.29774514 -0.47274527 0.2735684 0.05505156 -0.53858995 0.03890003 0.3588561 -0.30027595
-0.1743439 -0.102566965 -0.431239 0.21640836 0.12792237 -0.32581025 -0.45817593 -0.15501684
0.11045928 0.023135345 -0.3649727 1.0192676 -0.97856796 0.2541169 -0.7523021 -0.69926304
-0.2515493 -0.5397759 -0.6513038 -0.61787206 -0.22316219 -0.5893576 -0.24375694 -0.6330796
-0.2698381 -0.15322909 -0.047045644 -0.25670186 0.107210726 -0.89894766 -0.7407572 0.4802276
-0.7710656 0.02490526 -0.102867596 -0.16778044 0.83578616 0.8561704 -0.43648508 -0.68956923
-0.27171457 0.14246559 0.30417374 1.0742431 -0.3207766 0.7305502 -0.8020377 -0.5062992
0.60149354 -0.22402367 0.90632546 -0.8715328 -1.1070553 -0.15146627 -0.54071635 -0.7908686
1.2070578 1.6969608 -1.5956424 -1.0018082 -0.17708695 -0.5355639 -0.29564247 -0.068702966
-0.26932982 -0.58620447 0.34647483 -0.4866568 -0.47226107 -0.47210947 -0.77374655 -0.0087615615
-1.0280349 -0.6404624 -1.7034373 0.84003913 -0.10456986 0.8958761 -0.93970776 -0.74591726
-0.64163357 -0.08071092 0.79808855 -0.22790849 0.6571121 -0.17156154 0.10966712 0.74494773
-0.7358436 -0.19909677 -0.17422418 -0.28133038 1.4598112 -1.1033055 0.922672 -0.45468682
-1.0115585 0.43276072 -0.023915416 -0.8560037 -0.46135408 -0.40452266 -0.3608436 -0.77199537
-0.5244215 -0.3271727 -0.064468086 -0.47056094 -0.08516822 0.1440389 0.88373107 0.7733055
0.39000818 -0.3550573 0.067774974 -0.021358112 -0.10558743 -0.33848456 -0.08694018 1.5098168
-0.19057523 -0.6221504 0.5913143 -0.6018529 0.915507 -0.09078054 -0.08032967 0.37220997

layers.2.weight f4 [256, 256]
00000000: 2990 8bbf df34 77be 509a 503f 518d c73e
00000010: 09f8 573f 3f84 1bbf 3ef2 cabe 3dcb c9be
00000020: 5199 b9be 6450 ba3e 87a9 9cbd c138 313e
00000030: 0993 aebd a97f 423d a0d8 113f 1037 fabe
00000040: 63f2 9cbe 527c 98be 1f90 f3be 6e59 033f
00000050: ea9a 823f 21ae 9ebe 2bf6 b3be c960 16bf
00000060: 1f4e d63e c257 b1be 9cd7 ba3e 32b1 83be
00000070: 8fbc 79bf ee59 9abe 6e7c 92bd 022d bdbe
00000080: f28a 313e 6dfe 853d 8b46 c0bf 1dc7 da3d
00000090: e1b4 823e e955 5d3e b759 3bbf e014 b5bd
000000a0: 1dd6 74c0 6fe4 873e 057f 20c0 9f4e 613e
000000b0: 170e 433d 0939 7fbe 849a 60bf f33e 073f
000000c0: 73d7 c0be fc9d e8be d952 0d3f 80b4 b23e
000000d0: 7561 28be fc2a 77bf 344e f1be 7ec0 37bf
000000e0: 0d2b be3e 3c5c da3e 3baf 49bf 276a 00be
000000f0: 9535 e6be ae2b 5ebe 0e45 17bf 4a8d f7be
00000100: 5d22 223c f9b6 94bf b816 323f 0d0b a0bf
00000110: b757 893e 06bd e5bd 3c0e eabe c541 f4bd
00000120: edcf 003f 181f b83f 0b5d b1bf 6b7e 873f
00000130: ec39 9abf 7c35 333f 2e6c 85bf 5819 613e
00000140: 8153 92bd 6a36 e13e be32 8b3e 65af 91bf
00000150: dc35 0bbf bf40 11be 0df4 2ebe 7327 bd3e
00000160: 2f15 d53c 5cac 1cbf 55a7 08bf 7c4c 87be
00000170: d846 2bbf 9f17 b93e 1306 873f ae19 263e
00000180: d30a 56be 0edb 383f 621e a93e 11a4 723e
00000190: 7a26 bbbe 40b2 72bf 55f7 80bf b407 2d3e
000001a0: 7688 8a3e daef c03e 7cf5 02bf 6fb0 b0bf
000001b0: b075 2c3e bb7f bdbf 4d3d 8b3e dd2f f9be
000001c0: 8cb6 31bf 6404 aabe b4e5 d43e bec5 b83d
000001d0: 904c 513e 04f9 8dbf 00d3 2a3e 30ab ffbe
000001e0: 7cb2 13bf 5506 bbbe 73b6 883e e4e7 1ebf
000001f0: f231 333f bda5 01bf d84e 31be 0450 dfbe
00000200: 006c b8bd ed8b ed3d c4d4 94be 5cb7 cb3e
00000210: b18d 83be 3872 533f ac17 a9be 29ac 04bf
00000220: 4e03 093f 6172 ce3e 9d2d 14bf ad8d 7b3e
00000230: 8559 91be 86bc f2be 707a 393f 05c7 9cbe
00000240: aa4a 3fbf 415a 7f3e d0b2 71bf 892b 5e3f
00000250: 4a4f 17bf b782 033f ac27 75bf aaee 0cbf
00000260: 03ed 89be 2ef0 a4be 7315 15be af50 f8bd
00000270: 7ad8 17be 4ffc 463d 7bfc db3e f450 023f
00000280: c71b ae3e 492e 31bf 9420 e83e 7794 1ebf
00000290: e124 8ebe 2b78 c9bb 0369 88be e7c0 15bf
000002a0: cbea 5a3e 2b50 b93e 5d98 dcbe a87b 0a3f
000002b0: d4d5 26bf 9f4a f6be 4638 87c0 b9d6 8fbf
000002c0: de48 87be 1b03 0a3e 7c68 643e c7e9 203e
000002d0: 4eff b03e 5db0 bcbe 4916 f7be 7310 cbbd
000002e0: 0c06 7e3e 4f56 913f ae57 9fbf dcc1 293e
000002f0: 56a1 89be 8220 df3e 72df 103f 68fb a0bd
00000300: 15f0 1c3c 7d9b 5dbe bdef 90bf cff8 113f
00000310: 92b6 a3bf ee32 843e ed60 9b3f 248c 94bf
00000320: cdf5 8f3e e243 00c0 4104 d43e 95e3 1ebf
00000330: 1f3c 623e b2f5 86be e72c d8be 7d83 ce3e
00000340: f659 48bf be46 a23e 03ce 4dbf 3ced 35be
00000350: 25d9 7abd 323d 353f e02f 06bf 23db 3abe
00000360: 2551 a7be ba21 1f3f e2b1 9bbd 90ac 2e3f
00000370: 6f66 213f 86d4 163f 395c 053f 9c25 33be
00000380: 9206 cbbd ac41 203e e4f6 45bf 4bf3 303e
00000390: c8a2 d23d 38a0 8dbf 23ca 1c3d eb26 233f
000003a0: a432 543f f202 e23e ae27 793e 6e4b d33c
000003b0: d6bd 813e 8c94 ec3d df53 d53b 9640 17bf
000003c0: e985 833e 2143 813e 82ef 9cbf 8f9e d23d
000003d0: 4530 dc3e 28de aebf f8ba ae3f 8708 25be
000003e0: 3ab8 fcbe 52b5 893e 9933 003f 360d dcbe
000003f0: 90c0 6fbf 4d80 cabf e8a1 f0be 526c bebf
-1.0903369 -0.24141262 0.8148546 0.38975003 0.84362847 -0.60748667 -0.3963794 -0.3941287
-0.36249784 0.36389458 -0.07649522 0.17306806 -0.085241385 0.047485027 0.5697117 -0.48870134
-0.30653676 -0.2978235 -0.47570893 0.51308334 1.0203526 -0.30992225 -0.3514875 -0.5874143
0.41856477 -0.34637266 0.36492622 -0.25721127 -0.9755334 -0.30146736 -0.07152639 -0.369484
0.1733816 0.065426685 -1.5021528 0.10682509 0.25528625 0.21614803 -0.7318377 -0.08841872
-3.8255684 0.26541469 -2.5077527 0.22002648 0.04762086 -0.24924101 -0.8773577 0.5283043
-0.37664375 -0.45433033 0.5520454 0.34903336 -0.16443427 -0.96549964 -0.47129977 -0.71778095
0.3714222 0.42648494 -0.78783005 -0.12540494 -0.44962755 -0.2169635 -0.59089744 -0.48349983
0.009895888 -1.1618339 0.69565916 -1.2503372 0.26824734 -0.11217694 -0.45713985 -0.11926607
0.5031727 1.4384489 -1.385652 1.0585455 -1.2048926 0.70003486 -1.0423639 0.21982324
-0.07144833 0.43986827 0.2718715 -1.1381651 -0.5437906 -0.14184855 -0.17085285 0.3694416
0.026011078 -0.612005 -0.5338033 -0.2642554 -0.66904974 0.36150834 1.0548729 0.16220734
-0.20902567 0.7220925 0.33030993 0.23695399 -0.36552793 -0.9480324 -1.007548 0.1689747
0.27057236 0.37682992 -0.5115583 -1.3803843 0.16841769 -1.4804605 0.27195206 -0.4866933
-0.6941917 -0.33206475 0.415815 0.09022091 0.20439363 -1.1091619 0.16682053 -0.49935293
-0.5769422 -0.36528268 0.26701698 -0.62072587 0.69998085 -0.5064352 -0.17315233 -0.43615735
-0.09004974 0.11598954 -0.29068577 0.3978833 -0.2569404 0.8259616 -0.33025873 -0.51825196
0.5352067 0.4032164 -0.578821 0.24565764 -0.2838861 -0.47409457 0.7245245 -0.3062059
-0.74723303 0.24936773 -0.9441347 0.8678518 -0.5910536 0.5137133 -0.9576366 -0.5505167
-0.26938638 -0.32214493 -0.14558963 -0.12124764 -0.14828673 0.048580464 0.42966065 0.50904775
0.34005567 -0.6921125 0.45337355 -0.6194529 -0.2776251 -0.0061483583 -0.26642618 -0.5849747
0.21378629 0.36193976 -0.43084994 0.54094934 -0.65170026 -0.48103806 -4.2256193 -1.1237403
-0.2642278 0.13477747 0.22305483 0.15714179 0.34569782 -0.36853305 -0.4825919 -0.09915247
0.24806994 1.1354464 -1.2448633 0.16577858 -0.26880902 0.4357949 0.5659095 -0.07860452
0.009578724 -0.21641345 -1.1323162 0.57020277 -1.2790091 0.25820106 1.2138954 -1.1605268
0.2811722 -2.0041432 0.41409495 -0.6206601 0.22093247 -0.26359326 -0.42221758 0.40334693
-0.7826227 0.31694597 -0.80392474 -0.17766279 -0.06124224 0.707965 -0.524168 -0.18247657
-0.32679096 0.6216084 -0.07602288 0.6823206 0.63046926 0.58918035 0.52093846 -0.17494816
-0.099133626 0.15650052 -0.7732985 0.17280309 0.10284954 -1.106452 0.03827871 0.6373126
0.8288977 0.44142872 0.24331543 0.025792804 0.25340146 0.115517706 0.0065102424 -0.59082925
0.25688103 0.25246528 -1.2260592 0.10284149 0.43005577 -1.3661547 1.3650808 -0.16116534
-0.49359304 0.2689615 0.5007873 -0.4297883 -0.936532 -1.5820404 -0.46998525 -1.4876807

layers.2.bias f4 [256]
00000000: 1027 943d 3f88 22be 6929 933e a078 bbbd
00000010: 640b 88be 5d92 cbbe 46e4 143f ed61 bfbe
00000020: 1ba2 e7bd 63d0 c43e 1fc0 a73a 2872 b7bd
00000030: e303 0cbf e7f3 cc3e 8e9a 9abd 76cc 1a3f
00000040: 89a1 cf3d 6313 e5be 9352 4bbd 3313 e1bd
00000050: 96c1 903e 5e12 19be 3de0 0bbe d6b3 18be
00000060: 5cd3 4b3d 6ecc 4a3e d592 b93e 3811 24be
00000070: 1245 54bd da75 233f eff8 a9bd 0d8e 81bd
00000080: eee8 dd3e cd6e a73e d9f7 3ebf 40fb e83d
00000090: 950d 09bd 06e7 0e3f 2dd4 133d 983b 8ebc
000000a0: c923 c6bd a73d 2dbe 74e8 fdbd 6566 b63e
000000b0: 7354 ecbd 62c5 dbbd 84d8 8239 0f4c 25be
000000c0: 542c 453e 90a3 8ebe 5076 38bd d3e1 e3be
000000d0: 928a 84be 70e2 33be b71c d1be 0fce a0bb
000000e0: 57e7 823e 1495 7d3d 1bcc 34bf 7fa8 26bd
000000f0: cea2 1dbf ab90 e6bc 05e3 28bf 9a2c d3bd
00000100: e16d 183e aaaa 2f3f 373f 383e 14e4 f8bd
00000110: 9489 813e 01be 453e 691c 1dbd 0d64 88bd
00000120: b364 583e 56c5 433d 8c30 dabc 4dec c33e
00000130: 3aee 7d3d cd3f 0dbe 1526 87bd 6d58 543e
00000140: 5da8 d33d 7ce9 9a3c 10c5 e9be 0fb1 a13e
00000150: ca4b 8b3e 1dd9 17be f358 c6be fffe 22be
00000160: 482c ae3d 1dc6 23bf 1960 c63e 3f17 a0bd
00000170: 852b d4be 0265 d0be 82f5 9bbe 6e3e f83e
00000180: 0dbd 92bc 1967 c3bd 9e56 ed3e b59c 933d
00000190: 91ee 903e bddb 123d 2133 bcbc dbb9 f2be
000001a0: 53b3 64bd ceed 59be 318b 4dbd 7f4a a5bd
000001b0: 38a7 bdbc 80ec 173f df36 aebd dc14 f83e
000001c0: 7800 c73e 4d5d 68be 24e5 04be 81a8 b93e
000001d0: 16f0 a6be 4cea 7bbd dde1 05be 63f0 7bbf
000001e0: 947b 2e3d 4c7e 813d 2054 e03d 2c13 293f
000001f0: 328c ed3e 8fd4 21be 8e7f 12be fd67 05bd
00000200: 11bf c8bd f454 d2bd 3437 dd3e 32c5 54bd
00000210: b908 4dbe e2ea 5e3e 6ddf 953e be92 9abd
00000220: c6e3 96bd a97e 1c3f cc6d 7dbd c107 433c
00000230: b0e5 35bf ea2d 013e 1d79 0bbe 1582 f7bd
00000240: 5fff 363e 3677 03bf d44a 49bd 361c 1ebd
00000250: 7df0 3fbf 88c7 63bf fe5e 13be 0e0d ccbe
00000260: 57e6 e8be 4ce2 8d3b d26a 55be 8be0 6dbc
00000270: 22d9 5fbd bf44 523e ec41 febe 972b cc3e
00000280: 181c 3dbe 939e 523e 3fc2 6c3e cc5f bf3e
00000290: 2849 003f ed81 0fbe d6d8 96bd f26c 673d
000002a0: fba9 74be c900 c0bc b09c 9dbe 42f9 71be
000002b0: 8204 d2bd 5989 4fbd 1a85 3dbe 022a 023d
000002c0: 2593 8cbd 3bbf e8be 39db 45be 007b 173f
000002d0: ba81 1940 0b36 d33e c0de 5bbe 24de 443f
000002e0: fb65 64bd 8e37 9ebd 922f ef3e 9f15 a6bd
000002f0: 8524 07be 128d 83be 6eca 1ebe fde7 9bbe
00000300: b971 853d c12c c4bd 5c00 cf3e 17a3 20bd
00000310: 843f 463d d7a2 003f dd11 3fbf 73cb 60be
00000320: 562f 93bd e0bb b5bd f215 19bf fef9 f6be
00000330: 9ffd 233f dc58 fd3e 304e e1be 61f3 cbbd
00000340: 4c79 79bd aea8 14be 2dc1 8c3d 3dd6 04be
00000350: 8645 ce3e 9822 633d a1c4 63be a73e debd
00000360: 2c3d 8f3c b958 efbd 5533 0abe 335f e5bd
00000370: df5f 23be 7b46 e3bd 17d1 a3be f616 f43c
00000380: cde8 dcbe 5ec5 90bd d27b 08bd 7f8b 2fbe
00000390: 7ff3 26bd 2ed8 0e3f 2da3 1d3d 2073 bb3e
000003a0: bd6b 64bf 25d1 0abe aeca 523e 15bd 0bbe
000003b0: 5ad3 e63e 8bf0 223e fae5 d7bd d49f e8be
000003c0: 0673 95bd d4f1 a3be c3c5 153e 63fc 803d
000003d0: 8665 2fbf 6949 18bf a4d5 813e e8c5 8bbe
000003e0: 8b2a 8fbd b810 bbbd 9717 bf3e 31ae c3bd
000003f0: 4fd6 28be dc6e c13e cce0 17be b432 8b3e
0.07234013 -0.15872286 0.2874253 -0.09153867 -0.2657119 -0.39760104 0.5816082 -0.373794
-0.11310216 0.38440236 0.0012798345 -0.089573205 -0.5469343 0.40029833 -0.0754901 0.6046823
0.10138232 -0.44741353 -0.049639296 -0.1098999 0.28272694 -0.14948413 -0.13659759 -0.14912352
0.049762115 0.19804546 0.36244836 -0.16022193 -0.051823683 0.638517 -0.082994334 -0.06325922
0.43341774 0.32701722 -0.74596936 0.11376047 -0.03346022 0.55821264 0.03609102 -0.0173624
-0.09674794 -0.1691805 -0.123978525 0.35624996 -0.11539545 -0.10731007 0.0002495685 -0.16142295
0.19255191 -0.27859163 -0.045034707 -0.44508228 -0.2588697 -0.17566848 -0.4084222 -0.0049073766
0.25567123 0.06190975 -0.7062394 -0.040688034 -0.61576545 -0.028145155 -0.65971404 -0.103112414
0.14885665 0.6861979 0.17992865 -0.121528774 0.25300276 0.19310762 -0.038357172 -0.06659708
0.21132164 0.047795616 -0.026634477 0.3826622 0.06199477 -0.1379387 -0.065990604 0.20736857
0.10334847 0.018910162 -0.4565816 0.31580397 0.2720626 -0.14828916 -0.38739738 -0.15917586
0.0850454 -0.6397417 0.38745192 -0.07816934 -0.41439453 -0.40702063 -0.30460745 0.4848513
-0.017912412 -0.09541149 0.46355146 0.07207624 0.28307012 0.03585409 -0.022973599 -0.4740742
-0.05583508 -0.21282122 -0.05018157 -0.080708496 -0.023151025 0.59345245 -0.085065596 0.48453414
0.38867545 -0.22691841 -0.12978035 0.3626137 -0.32605046 -0.06150274 -0.13074441 -0.98413676
0.042598322 0.06322917 0.109535456 0.6604488 0.46396023 -0.15803741 -0.14306471 -0.032569874
-0.09802068 -0.1027011 0.4320618 -0.051945873 -0.20022859 0.21769288 0.29272023 -0.0754752
-0.07367663 0.6113077 -0.06187229 0.011903704 -0.710536 0.12615171 -0.1362042 -0.12085358
0.17870854 -0.51353776 -0.049143627 -0.038601123 -0.7497633 -0.88976336 -0.14391705 -0.3985371
-0.45488235 0.004329955 -0.2084153 -0.014518867 -0.054650433 0.20534037 -0.4965967 0.39877006
-0.18467748 0.20568304 0.23120974 0.37377775 0.5011163 -0.14014407 -0.07365577 0.056500383
-0.23892967 -0.023437874 -0.30783606 -0.2363024 -0.10254766 -0.050668094 -0.18507805 0.031778343
-0.06864003 -0.45458397 -0.19321908 0.5917206 2.398543 0.4125217 -0.21471691 0.7690146
-0.05576132 -0.0772544 0.4671598 -0.08109593 -0.13197525 -0.25693566 -0.15506908 -0.3045043
0.065158315 -0.09578849 0.40429962 -0.039218035 0.048400417 0.50248474 -0.7463663 -0.2195261
-0.07186763 -0.08873725 -0.5979911 -0.48237604 0.6405887 0.49481857 -0.44004965 -0.0995853
-0.060906693 -0.14517471 0.06872783 -0.1297235 0.40287417 0.055452913 -0.22242977 -0.10851794
0.017485224 -0.116868444 -0.13496144 -0.111997984 -0.1595454 -0.110974275 -0.3199546 0.029796105
-0.43146363 -0.07068895 -0.03332121 -0.17143057 -0.04075956 0.55798614 0.038485695 0.3661127
-0.89226896 -0.13556345 0.20585129 -0.13646348 0.45083123 0.15912072 -0.105419114 -0.4543444
-0.072973296 -0.32020438 0.14626221 0.06298139 -0.6851429 -0.59487015 0.25358307 -0.27299428
-0.06990536 -0.09134048 0.37322685 -0.09554709 -0.16488002 0.37779891 -0.14831847 0.2718712

out.weight f4 [2, 256]
00000000: 941f 91bd 88b8 31bb ed3f 0fbe 6006 343d
00000010: 3ad0 ebbc 4e2a 41bd 9e18 833e 8372 49be
00000020: d0f1 323d bc3b bdbd 5a94 d2bd 9062 b43d
00000030: 70b9 eebe 8b2e a4bd f333 e73c e733 8ebd
00000040: d8b4 d5bd 43e3 39be 6993 a2bd 8cf5 8fbc
00000050: 25b6 afbd 09e8 403c ea6b 503d 9980 c53c
00000060: 7b57 9bbe e124 11be 6b96 02be 1f4d 233d
00000070: 37b7 32bc fcf8 b33e cec3 903c 4bde 7dbc
00000080: 15e3 11bf 1c6c b3bd 63da a2be efcd fb3e
00000090: 7f5d 263c 17a8 b2bd 26f6 a1bc 1c4e afbd
000000a0: dcec d9bd 5b04 61bd 1375 653d 0a6b d0bd
000000b0: 6fc5 233d 2a61 d73c ed71 9abc 4d5f 8e3d
000000c0: c4b2 12be 4a35 eabd b0c2 313d af55 2abe
000000d0: bf9e 8dbe d899 46bc c82a 8ebe 9413 08bc
000000e0: 3c2c 5dbd 7322 00be 0e72 91be 7e30 21bc
000000f0: b350 9fbe e467 8ebc 31b3 87be f77a a23d
00000100: 13bd c7bd ab2d 893e 2a69 93be ab0c e33c
00000110: d350 a6bd 0a45 09bd 8604 2cbe add0 05bd
00000120: 1f97 e0bc 7ccf 5bbd 699a b6be f7d0 513e
00000130: 12b5 2ebe 8dac 97bd f8b7 ce3c 9ec1 85bd
00000140: 024a 30be 3903 d8bd 59f9 00bf 9dfd 28bd
00000150: f1da e4bd 132e 8abe ee0c 7ebe 0583 8a3d
00000160: 9788 903d ad9e 9a3e 82ab 34bd 384d b33d
00000170: f052 16be 17a9 83be 4530 7abd a7be 9dbd
00000180: e924 acbd 3761 38bc cda6 8c3e 1af2 b1bd
00000190: 01de a2bd 1c60 8bbc d499 f3bd ba60 9bbe
000001a0: f5ef 023d 545c 17be eec6 90bc 81e3 ca3b
000001b0: 7c3b 82bc 6475 78bd 7739 2f3d 51e5 98bd
000001c0: 231f cfbd 8549 23be 89bf 10be 9b77 00be
000001d0: 1c67 23be 5b8f e7bc 39ef ca3c 7fc8 b33e
000001e0: 7eb2 cbbd 9912 683e ff80 20bd 0856 bfbd
000001f0: 179e 1bbe 86a9 273d 615b c3bd 3964 44bc
00000200: bccf 7bbd 5697 a6be 639f d0bd 36a6 a0bc
00000210: bdac 85bd e80d a6bd 3544 48bd 7a61 523d
00000220: 0e3a a83c abe9 c3bd 45d8 9abb be31 afbe
00000230: 9ffb b0be a98d 9ebe 6006 b43b 428e 65bd
00000240: ef6d b4bd b523 69be 3c39 94be dcee 87bc
00000250: 81e8 993e 4927 a2be 90ce 3bbd 60bf 2cbe
00000260: b013 a3be 8e89 213c 2e27 9b3d 905b b1bc
00000270: bed0 183c 82ad f9be 7c5b 1dbe ca55 c9bd
00000280: d451 38be d916 0dbe 0810 10be 2207 15be
00000290: 5043 f63e 06ca 93bd 5219 d4bd b719 97be
000002a0: 81f8 c53e 4f00 223d bda6 e9bd a6da 59be
000002b0: c8a6 ce3b f478 81bc 109e 6c3d fb8e 8dbd
000002c0: 672f a63d d2d0 5abe f188 5d3d 9d6b 86be
000002d0: 33e7 953c 8bf6 a0bd d926 cdbc ab76 b2bd
000002e0: f431 f83c a645 9b3d 7945 1cbd eddc 843d
000002f0: 48ed 3c3d ebf7 0abe 523f efb9 92cd 7dbe
00000300: d6b9 35be adaa 9c3c 6aba 22bd a4be 8b3c
00000310: a6c2 06be 6e3a 1abd 390a 943e 74e2 ffbd
00000320: 0d9b 9c3c 6577 813d 700d 663e 9dbd 90be
00000330: 527c 87bd 95b5 1cbe d763 74be 1fed 32bc
00000340: 05e0 073d 9e7a 113d 52bc a13e 8d86 bd3e
00000350: eef9 4dbd b658 bbbe be3e ccbe 5af7 01be
00000360: 74c9 7e3c 556f 3abd 255b 8d3d 9eac 913d
00000370: 5650 9a3d 4066 303c 76d0 06bf cf29 9cbd
00000380: ac77 853e 4595 88bd 7f79 5e3e 3478 7ebc
00000390: 87a1 803d ce4d 93bd 8c37 80bd d590 88bd
000003a0: fc66 0ebf ab6a fdbb 4be3 a43e 2461 8cbc
000003b0: fb46 90bd 22c3 dfbd 6df8 8e3d 7b90 fdbd
000003c0: 9fe9 a43d 3975 ecbd d989 163e 35af a9bd
000003d0: 3d4b 3d3e ef58 92bd ab51 153e 2607 d8bd
000003e0: e943 23be c64d 963d dde8 60bd de7d 9e3d
000003f0: bec1 273d 6158 9ebd 4d40 49be 78de c5bd
-0.07086101 -0.0027118046 -0.1398923 0.043951392 -0.028785814 -0.047159486 0.2560472 -0.19672589
0.04368764 -0.09239909 -0.10282202 0.08807862 -0.46625853 -0.0801669 0.028223014 -0.06943493
-0.10434884 -0.181531 -0.079382725 -0.01757314 -0.08579663 0.0117740715 0.050884165 0.024109172
-0.3034018 -0.14174224 -0.12752692 0.03986847 -0.01090794 0.35150898 0.017671492 -0.015494893
-0.56987125 -0.087608546 -0.3180724 0.49180552 0.010154127 -0.08723467 -0.019770693 -0.0855982
-0.106408805 -0.054935794 0.056019854 -0.10176666 0.03998321 0.026291449 -0.018853152 0.06951771
-0.14326006 -0.11435945 0.04339856 -0.16634248 -0.27660176 -0.01212164 -0.27767015 -0.008305449
-0.053997263 -0.12513141 -0.2840733 -0.009838222 -0.31116256 -0.017383523 -0.265039 0.0793361
-0.0975286 0.26792654 -0.2879117 0.027716001 -0.08120885 -0.033513106 -0.167986 -0.03266971
-0.02741581 -0.05366467 -0.3566468 0.2048987 -0.1706126 -0.07405958 0.025234208 -0.0653107
-0.17215732 -0.1054749 -0.50380474 -0.04125749 -0.11174572 -0.26988277 -0.2480962 0.06763271
0.070573024 0.30199185 -0.044108875 0.08754963 -0.14680076 -0.25714943 -0.06108119 -0.0770238
-0.084054776 -0.011253647 0.2747101 -0.08688755 -0.079525 -0.017013602 -0.11894575 -0.30347234
0.031967122 -0.14781314 -0.017672982 0.0061916714 -0.015897505 -0.060658827 0.042779412 -0.07465614
-0.10113361 -0.15946014 -0.14135565 -0.12545626 -0.15957302 -0.0282666 0.024772273 0.35113904
-0.09946154 0.22663344 -0.03918552 -0.09342581 -0.15197025 0.040933155 -0.095389135 -0.011986786
-0.061477408 -0.32537335 -0.101866506 -0.019610506 -0.06527088 -0.08108121 -0.048893172 0.051362492
0.020535495 -0.09566053 -0.0047254884 -0.34217638 -0.34566972 -0.30967453 0.005493924 -0.05604387
-0.08810031 -0.22767527 -0.28949916 -0.01659339 0.300602 -0.31670597 -0.04585129 -0.16869879
-0.31850958 0.009859456 0.07575832 -0.021650106 0.009327112 -0.48765188 -0.1536693 -0.09830816
-0.17999965 -0.13778247 -0.14068615 -0.14553502 0.4809823 -0.07216267 -0.10356392 -0.29511806
0.38666156 0.039551076 -0.11408756 -0.21274814 0.006306503 -0.015804745 0.057767928 -0.06912037
0.0811451 -0.21368721 0.054085676 -0.26253977 0.018298721 -0.07859524 -0.025042938 -0.0871404
0.030297257 0.07581644 -0.03815219 0.06487451 0.046124727 -0.13571136 -0.0004563281 -0.2478545
-0.17746672 0.019124353 -0.03972856 0.017058678 -0.1316019 -0.03765338 0.2891405 -0.124943644
0.019116903 0.06321601 0.22466063 -0.28269663 -0.06615509 -0.15303643 -0.23866211 -0.010920792
0.033172626 0.035517327 0.3158899 0.37016717 -0.05028718 -0.3659112 -0.39891618 -0.12692013
0.01555096 -0.04551633 0.0690215 0.07113002 0.07534854 0.010766566 -0.52661836 -0.07625162
0.26067865 -0.06669096 0.21726035 -0.015531588 0.06280809 -0.071925744 -0.06260595 -0.066682495
-0.5562589 -0.007733663 0.3220466 -0.017136164 -0.070447885 -0.109258905 0.06980977 -0.12381073
0.08052372 -0.11545796 0.14701022 -0.08285371 0.18485732 -0.07145869 0.14581935 -0.105482385
-0.15943874 0.07339053 -0.054909576 0.07738851 0.04095625 -0.07731701 -0.19653435 -0.09661573

out.bias f4 [2]
00000000: 67bf 8bbe 67bf 8bbe
-0.27294466 -0.27294466
